dnn-models/cifar10-cnn.onnx (onnx, 493286 bytes, 10 tensors)

sequential/dense_1/MatMul/ReadVariableOp:0 f4 [64, 10]
0	0x3e5703ed	0.20997591
1	0xbe0c2f53	-0.13689928
2	0x3e1a0c82	0.15043834
3	0xbde2e850	-0.11079466
4	0xbd903bd2	-0.0704266
5	0x3e2398a9	0.15976204
6	0xbe55e1f3	-0.20886974
7	0x3d209d7e	0.039212696
8	0x3db4b612	0.0882379
9	0xbe84543f	-0.25845525
10	0x3e0d91ba	0.13825122
11	0xbe8f1569	-0.27946022
12	0xbc902107	-0.017593874
13	0x3e149760	0.1451087
14	0xbe6dd113	-0.23224287
15	0x3e2a142e	0.1660926
16	0x3d88d9c8	0.066821635
17	0xbe53e8aa	-0.20694223
18	0xbdfa765c	-0.122296065
19	0x3ded3ffb	0.11584469
20	0xbe27bd61	-0.16380836
21	0xbcd6f020	-0.026237547
22	0x3d6ea6d2	0.05826456
23	0x3d71fbef	0.059078153
24	0xbe74f792	-0.23922566
25	0xbd98e7d2	-0.07466091
26	0xbcbdb8f8	-0.023159489
27	0x3e814469	0.25247505
28	0x3e679202	0.22614291
29	0xbe93ea91	-0.28889897
30	0xbc76dac9	-0.015066811
31	0xbe264ac7	-0.16239463
32	0x3e1859af	0.14877962
33	0x3c875841	0.016521575
34	0x3e813b88	0.2524073
35	0xbe5df52a	-0.21675554
36	0xbdcac0d7	-0.099000625
37	0x3d1330f7	0.03593537
38	0xbdc3adb9	-0.09554619
39	0xbe3dc4aa	-0.18532053
40	0xbb15ca2e	-0.0022856104
41	0xbd200b2a	-0.039073147
42	0xbcd79395	-0.02631549
43	0x3e7c5131	0.24640347
44	0x3e846ab8	0.2586267
45	0xbe7efb99	-0.24900664
46	0x3e552dee	0.20818302
47	0x3e187dc3	0.14891724
48	0x3e59c7b4	0.21267587
49	0x3e65d1ba	0.22443286
50	0x3e71bced	0.23607226
51	0xbe13da0b	-0.14438646
52	0x3dcc1161	0.09964252
53	0xbeae2544	-0.34012806
54	0xbdee8455	-0.11646334
55	0xbe903cce	-0.2817139
56	0x3ed62ad0	0.41829538
57	0xbec8c301	-0.39211276
58	0xbd8bb760	-0.068220854
59	0x3dbfd87c	0.09367463
60	0xbe14f180	-0.1454525
61	0xbeafda15	-0.3434607
62	0x3d4c065b	0.04981075
63	0xbe552ef6	-0.20818695
64	0xbe4ced50	-0.20012403
65	0xbe2f28d4	-0.17105418
66	0xbe810359	-0.25197867
67	0xbe8b1822	-0.2716685
68	0x3ddeb17a	0.10873695
69	0x3ecc5c45	0.39914146
70	0xbc9c52ab	-0.019082388
71	0x3e5bc887	0.21463214
72	0x3e907516	0.2821433
73	0x3c9ba899	0.019001292
74	0x3dad7f33	0.08471527
75	0x3d8e6ac2	0.06953956
76	0x3e1b6812	0.15176418
77	0x3e2337fe	0.15939328
78	0xbea2253d	-0.31669036
79	0xbe06f7d0	-0.1318047
80	0x3e5e293b	0.21695416
81	0xbdef3795	-0.11680523
82	0x3e494fe8	0.19659388
83	0x3be1d60a	0.0068919705
84	0x3e4a623f	0.1976404
85	0xbe692ac6	-0.22770223
86	0x3e09c789	0.13455023
87	0x3ed472d0	0.41493845
88	0xbdab700e	-0.08370982
89	0x3e2c73d8	0.16841066
90	0x3d427570	0.04747528
91	0x3e6ebd4f	0.23314403
92	0xbe1bc769	-0.15212788
93	0xbdd38c6a	-0.10329516
94	0xbe7dfe8f	-0.24804138
95	0xb947e1bb	-0.0001906221
96	0x3e363419	0.17793311
97	0x3dfadf3a	0.12249608
98	0x3d7fb442	0.062427767
99	0x3ccad3d5	0.024759213
100	0x3e2b9d16	0.16759142
101	0xbe83b28b	-0.25722155
102	0xbc9ddbc2	-0.019269828
103	0xbe0c9c70	-0.13731551
104	0x3d69d57b	0.057088356
105	0xbded276c	-0.11579785
106	0xbd486abd	-0.04892992
107	0xbe0b478b	-0.1360151
108	0x3e493e78	0.19652736
109	0x3e462056	0.19348273
110	0xbbbd5f4d	-0.005779183
111	0x3e22f7f5	0.159149
112	0xbc132250	-0.008980349
113	0xbe58ecb0	-0.21184039
114	0xbd8e4102	-0.06945993
115	0xbe4043d9	-0.18775882
116	0xbe5b341f	-0.21406601
117	0x3d4f0d10	0.050549567
118	0x3e68c008	0.22729504
119	0x3ddb8b91	0.107199796
120	0xbdc7e430	-0.0976032
121	0x3cc026e8	0.023456052
122	0x3c55bc93	0.013045448
123	0x3e514f56	0.2044042
124	0x3e1a11ea	0.15045896
125	0xbe7ae0c2	-0.24499801
126	0xbe345751	-0.17611434
127	0xbe8a04b7	-0.26956722
128	0x3e5ec570	0.21755004
129	0x3e468f21	0.19390537
130	0xbe1de8db	-0.15420859
131	0xbe38995c	-0.18027252
132	0xbd27b2b7	-0.04094192
133	0xbe2bd552	-0.16780594
134	0xbe2fd769	-0.17172016
135	0xbca68ff3	-0.020332312
136	0xbe87d7b6	-0.26531762
137	0x3df74be3	0.12075021
138	0xbe66f0a6	-0.22552738
139	0xbe01c989	-0.12674536
140	0xbd798749	-0.060920034
141	0xbe0dd2c5	-0.13849933
142	0xbe8585a1	-0.26078513
143	0xbe8733aa	-0.26406604
144	0x3e83f6a4	0.2577411
145	0xbca865e5	-0.0205564
146	0x3d19dda8	0.037564903
147	0x3bb4b5b5	0.005514825
148	0x3e5599bd	0.20859428
149	0x3dfeeaab	0.12447103
150	0xbd82098c	-0.06349477
151	0xbe16a3bb	-0.14710896
152	0xbe82e349	-0.2556403
153	0x3e451359	0.19245662
154	0x3e192fbd	0.14959617
155	0x3e5ace9a	0.21367875
156	0xbdd76024	-0.10516384
157	0x3e1b1d14	0.15147811
158	0xbe9e36a0	-0.3090105
159	0x3e2e6622	0.17031148
160	0x3eaf1a7c	0.34199893
161	0x3e255e16	0.16149172
162	0xbea30b93	-0.31844768
163	0xbbce3fba	-0.006294218
164	0xbe3cefaa	-0.184508
165	0xbe121f73	-0.1426981
166	0x3e340734	0.17580873
167	0xbe88d920	-0.26728153
168	0xbe1c6d8d	-0.15276165
169	0x3e861dfc	0.2619475
170	0x3da287d9	0.07936067
171	0x3e2d5a30	0.16928935
172	0x3e14d907	0.14535914
173	0xbba2f652	-0.0049732113
174	0x3e7bcdfd	0.24590297
175	0xbe5ff3bc	-0.21870321
176	0xbe429e45	-0.19005688
177	0x3ec7c12c	0.39014566
178	0xbe9b699b	-0.30354008
179	0x3e4a0675	0.19729026
180	0xbf15d592	-0.5852901
181	0x3da71e19	0.081600375
182	0x3d942f14	0.07235542
183	0x3ea87906	0.32904834
184	0x3e898f49	0.2686713
185	0x3e867d9d	0.2626771
186	0x3eab1078	0.33411002
187	0x3d2d1bd6	0.042262875
188	0x3e002f31	0.12518002
189	0xbe3e5ee9	-0.18590893
190	0xbe840200	-0.25782776
191	0xbe4c7ea5	-0.19970186
192	0x3d381c51	0.04494888
193	0x3de599fa	0.11211009
194	0xbf01fdb3	-0.5077774
195	0xbebcbf39	-0.3686464
196	0xbd8b1b20	-0.06792283
197	0xbd4ea486	-0.05044987
198	0x3ea7eee8	0.32799459
199	0xbdf340c2	-0.11877586
200	0xbe4f3211	-0.20233943
201	0x3edc6070	0.43042326
202	0x3e8a656d	0.27030507
203	0x3e4bf741	0.19918539
204	0x3e4785ed	0.19484682
205	0x3e506310	0.2035029
206	0xbe909485	-0.2823831
207	0xbeb38613	-0.35063228
208	0xbe9b30d8	-0.30310702
209	0xbcd2ef6b	-0.025748929
210	0xba8f1236	-0.0010915461
211	0x3e83241f	0.25613496
212	0xbd724f1e	-0.059157483
213	0xbdf78529	-0.12085945
214	0xbedfcaee	-0.4370951
215	0x3e10cb7d	0.14140125
216	0xbed9eb1a	-0.4256218
217	0xbdb31ab8	-0.087453306
218	0x3e898705	0.26860824
219	0x3e399e28	0.18126738
220	0x3d499b07	0.04922011
221	0x3cf475d7	0.029841347
222	0xbe4a7eeb	-0.19774978
223	0x3d4e7ad9	0.050410125
224	0xbe362e89	-0.17791189
225	0x3d954a75	0.07289592
226	0xbe6e4946	-0.23270139
227	0x3e55bf8b	0.20873849
228	0xbefa775b	-0.48919186
229	0xbe7e25e4	-0.24819142
230	0x3e505e8f	0.20348571
231	0x3e138cfb	0.14409249
232	0xbe8502d9	-0.25978735
233	0xba87fe9e	-0.0010375564
234	0xbdf43058	-0.11923283
235	0x3e754d11	0.2395518
236	0x3d829a85	0.063771285
237	0x3d59bd12	0.053158827
238	0xbdbf4eb1	-0.09341181
239	0x3dc5f413	0.09665694
240	0x3c51c8ac	0.012804192
241	0x3db7e2da	0.089788154
242	0xbeb4ac86	-0.35287875
243	0xbe63ea78	-0.22257411
244	0xbe8959f6	-0.26826447
245	0xbe9f49d0	-0.31111002
246	0x3ea1086b	0.31451735
247	0xbeecc51a	-0.46244127
248	0x3ea55be7	0.32296678
249	0xbcfba9c2	-0.030720595
250	0xbe856a16	-0.260575
251	0x3e55c6e4	0.20876652
252	0xbe754b36	-0.23954472
253	0xbec421e4	-0.38307106
254	0xbef167e4	-0.47149575
255	0xbecdbb0a	-0.40181762

sequential/dense_1/BiasAdd/ReadVariableOp:0 f4 [10]
0	0xbdf9d04b	-0.12197932
1	0xbe6278b6	-0.2211636
2	0xbc0bbdfa	-0.008529181
3	0x3d747d34	0.059689716
4	0x3e7c192b	0.24618976
5	0xbcee700e	-0.029106166
6	0x3ca94d1b	0.02066665
7	0xbd7b409e	-0.06134092
8	0x3c86875c	0.016421966
9	0x3d000f91	0.031264845

sequential/dense/MatMul/ReadVariableOp:0 f4 [1024, 64]
0	0x3d615d79	0.055020783
1	0xbd46bf67	-0.04852238
2	0xbd98aa4a	-0.07454355
3	0xbd5c1b3c	-0.05373691
4	0xbc1a16e4	-0.009404872
5	0x3db36bff	0.08760833
6	0x3df69a15	0.120411076
7	0xbcd03f0b	-0.025420686
8	0xbd968848	-0.07350212
9	0x3d033d6e	0.032041006
10	0x3c184018	0.009292625
11	0xbc65a389	-0.014016041
12	0xbcf0dc5d	-0.029401952
13	0x3c7348ed	0.01484893
14	0xbd8d7136	-0.06906359
15	0xbda4107f	-0.08010959
16	0x3e1772ce	0.14789888
17	0xbcdf74b4	-0.027277328
18	0xbe0ad8c5	-0.13559254
19	0x3e168dfc	0.147026
20	0xbde9207b	-0.11383148
21	0x3de14ae5	0.11000613
22	0xbca41fc3	-0.020034676
23	0x3d5ca24d	0.05386572
24	0x3e909956	0.28241986
25	0x3d6544d1	0.05597383
26	0xbdec89ba	-0.11549707
27	0xbdcfa7ec	-0.101394504
28	0xbd866da5	-0.06563882
29	0x3e1b0be5	0.15141256
30	0x3da4b351	0.080420144
31	0x3de14be8	0.11000806
32	0xbdb65b9b	-0.08904191
33	0x3e334bc5	0.17509373
34	0x3e14a2a1	0.14515163
35	0x3c0669f4	0.008203972
36	0x3d17133c	0.036883578
37	0xbd897607	-0.06711965
38	0xbc8ff331	-0.017572017
39	0x3e008719	0.12551536
40	0xbd097c6e	-0.03356593
41	0xbd5b2d1f	-0.053509828
42	0xbda892de	-0.08231138
43	0x3e8d8b97	0.2764556
44	0x3d12d861	0.035850886
45	0xbe2256b3	-0.15853386
46	0xbd96748b	-0.073464476
47	0x3e0225ed	0.1270978
48	0xbe5cc052	-0.2155774
49	0x3d656e7c	0.05601357
50	0xbdb254ba	-0.087075666
51	0x3e52f4ec	0.20601243
52	0xbda41b6b	-0.08013042
53	0xbcc714a4	-0.024301834
54	0x3e0c8581	0.13722803
55	0xbd491f99	-0.0491024
56	0x3d9f2be8	0.07772046
57	0xbdad63e8	-0.08466321
58	0xbcbb8ab4	-0.022893287
59	0xbe832d2b	-0.25620398
60	0xbdbafee8	-0.09130651
61	0x3e5bc346	0.2146121
62	0xbd9bb7bc	-0.07603404
63	0xbdc6f4ab	-0.097146355
64	0x3c940103	0.018066889
65	0xbd6025c2	-0.05472351
66	0x3c7f32cf	0.015576079
67	0x3cce83cb	0.025209328
68	0xbd73ec04	-0.059551254
69	0x3d8c4675	0.06849376
70	0xbd135cf8	-0.035977334
71	0x3dfd9883	0.12382605
72	0x3ceb953a	0.02875768
73	0xbd608e08	-0.05482295
74	0xbdb5deaf	-0.08880364
75	0x3d4e0054	0.05029328
76	0x3d094872	0.033516355
77	0xbd9dde09	-0.077083655
78	0x3cad8985	0.021183738
79	0xbe328e45	-0.17437084
80	0xbd173b89	-0.03692201
81	0xbd1932af	-0.03740185
82	0x3e06aa46	0.13150892
83	0xbdbd7b0e	-0.092519864
84	0xbe4c9e2a	-0.1998221
85	0x3d909510	0.070596814
86	0xbdb1be28	-0.086788476
87	0xbdbbb967	-0.09166222
88	0x3e2df138	0.16986549
89	0x3dc15828	0.094406426
90	0x3d7d4abc	0.06183885
91	0xbdd49fe9	-0.10382063
92	0xbdc817e2	-0.0977018
93	0xbe9f8c8a	-0.3116191
94	0xbd2c7a0b	-0.042108577
95	0x3e9a00f7	0.3007886
96	0xbda3bb09	-0.079946585
97	0x3d8c8290	0.0686084
98	0xbe42ba31	-0.19016339
99	0xbe592a03	-0.21207432
100	0xbcd75bca	-0.026288886
101	0x3db9dd48	0.09075409
102	0xbc9e92f9	-0.019357191
103	0xbd0490fe	-0.032364838
104	0x3e802b57	0.25033066
105	0x3d4b6a5b	0.049661975
106	0xbcb334a9	-0.021875696
107	0xbdee95ce	-0.11649667
108	0xbd53dce4	-0.05172433
109	0x3e670ee3	0.22564273
110	0x38fff288	0.000122045225
111	0x3dc0ee19	0.094204135
112	0xbe47d2b0	-0.19513965
113	0x3d7b7ed6	0.061400257
114	0x3d8d9a23	0.06914165
115	0x3d6669c4	0.05625321
116	0x3d497b66	0.049189948
117	0xbd4f8777	-0.0506663
118	0x3e279668	0.16365969
119	0xbd3c698f	-0.045999106
120	0x3dd5e355	0.10443751
121	0xbe2ca3aa	-0.16859308
122	0xbbde20d2	-0.006778815
123	0xbd764aab	-0.060129803
124	0xbda7931f	-0.08182358
125	0x3e422401	0.18959047
126	0x3c6f8605	0.014619355
127	0x3af01226	0.0018315956
128	0x3cddc36b	0.027070722
129	0xbd35c68c	-0.044378802
130	0x3d7821ad	0.06057899
131	0x3c0b748e	0.0085116755
132	0xbd127a9f	-0.03576147
133	0xbd054eae	-0.032545738
134	0xbd6f6ea2	-0.058455117
135	0x3dda9d99	0.106745906
136	0x3bcd662a	0.0062682824
137	0xbb8a29c0	-0.004216403
138	0xbb2143b4	-0.0024607005
139	0x3c878084	0.016540773
140	0x3d8bb572	0.06821717
141	0x3d11d92c	0.035607502
142	0xbb9ee562	-0.004849122
143	0x3ce2e7f1	0.027698489
144	0x3d495bfd	0.049159992
145	0xbda07f00	-0.07836723
146	0x3c79e683	0.015252712
147	0x3cc29d30	0.023756593
148	0x3c0e82de	0.008698193
149	0x3d29dbfa	0.04146955
150	0x3cee1840	0.029064298
151	0x3cd77fd2	0.026306067
152	0xbc8c68e9	-0.017139869
153	0x3c0a3d8b	0.008437525
154	0x3d9117d6	0.070846245
155	0x3da8cd11	0.08242238
156	0x3c90b9ca	0.017666716
157	0x3d11c4fc	0.03558825
158	0x3d13c7f8	0.036079377
159	0xbcb983e7	-0.022645904
160	0xbd177124	-0.036973134
161	0x3d855699	0.06510658
162	0xbc97279a	-0.0184515
163	0x3d652094	0.055939272
164	0x3d0bdbc3	0.034145128
165	0x3d0f5649	0.034994397
166	0xbd17ab91	-0.037028853
167	0x3d624590	0.05524212
168	0xbd4c0759	-0.049811695
169	0x3d6c9954	0.057763413
170	0x3d5eabd0	0.054363072
171	0xbdc410f8	-0.09573549
172	0x3d1c9d28	0.038235813
173	0x3d3fa495	0.046787817
174	0x3cab0637	0.020876987
175	0xbd3aeb7e	-0.04563474
176	0xbc45d519	-0.012074732
177	0x3cede853	0.029041445
178	0xbda7eb56	-0.08199184
179	0x3d223c1f	0.039608117
180	0xbd60eba4	-0.054912224
181	0xbd590bda	-0.05298982
182	0x3d03b30a	0.032153167
183	0xbd526839	-0.051368926
184	0x3d8220e3	0.06353929
185	0x3c790d80	0.015200973
186	0xbb1d24be	-0.00239782
187	0x3c981658	0.018565342
188	0x3d3b833f	0.045779463
189	0x3b9c09f8	0.0047619306
190	0xbce4bc9a	-0.027921963
191	0xbd90333c	-0.07041022
192	0xbd0ca456	-0.03433641
193	0xbd35a04e	-0.04434233
194	0xbd6c5d60	-0.057706237
195	0xbd5b7a4a	-0.05358342
196	0x3d7c870a	0.06165222
197	0x3e5c1bea	0.21495023
198	0xbe63e1f1	-0.22254159
199	0xbcd50007	-0.02600099
200	0x3e26e9b6	0.16300091
201	0x3e188a41	0.1489649
202	0xbbe4b7e9	-0.0069799316
203	0xbd802900	-0.0625782
204	0x3cd1fb6d	0.025632584
205	0x3d1411e9	0.036149893
206	0xbd7ec1bd	-0.062196482
207	0x3d279168	0.040910155
208	0x3e67504c	0.22589225
209	0x3dad3f06	0.084592864
210	0xbe5a54fe	-0.21321484
211	0xbd655039	-0.05598471
212	0xbdfb2891	-0.12263597
213	0xbdf6fee4	-0.12060335
214	0x3e8085bd	0.25102034
215	0x3d14db18	0.036341757
216	0xbd4585b8	-0.048223227
217	0xbe25c543	-0.1618853
218	0xbd63b868	-0.055595785
219	0x3c7ffcea	0.015624264
220	0x3c9cfe1a	0.019164134
221	0x3e0d7970	0.13815856
222	0xbdd8a9c0	-0.10579252
223	0xbdc0741d	-0.09397147
224	0xbdf9b0bc	-0.121919125
225	0xbc352ca8	-0.01105801
226	0x3e63a6fa	0.22231665
227	0x3e32d8f5	0.17465575
228	0xbd7ee513	-0.06223018
229	0xbda2f5c0	-0.07957029
230	0xbddf8918	-0.109148204
231	0x3d809489	0.06278331
232	0xbd90ebb2	-0.07076205
233	0xbe73509f	-0.23761223
234	0xbd9666f7	-0.07343858
235	0x3e596fe0	0.21234083
236	0xbd2e907f	-0.04261827
237	0x3e115d7e	0.1419582
238	0xbd6b8c35	-0.05750676
239	0xbd063281	-0.032763008
240	0x3dfd5671	0.12370003
241	0x3e2e41fe	0.17017362
242	0xbc4e3ea3	-0.012588176
243	0xbd72ccce	-0.05927735
244	0xbcd89a9b	-0.02644091
245	0xbdf517fa	-0.11967464
246	0xbdf07b34	-0.11742249
247	0xbdb61ffb	-0.088928185
248	0x3e78aeff	0.24285506
249	0xbe4b682a	-0.19863954
250	0xbdd5a4bd	-0.10431812
251	0x3d7240e6	0.059143923
252	0x3cf4ca7b	0.029881706
253	0x3d586ea1	0.05283988
254	0x3d13463f	0.035955664
255	0xbd7368e2	-0.059426196

sequential/dense/BiasAdd/ReadVariableOp:0 f4 [64]
0	0xbcdb7840	-0.026790738
1	0xbcdaf948	-0.026730195
2	0xbd16f9eb	-0.036859434
3	0xbcf0be9d	-0.029387766
4	0xbc9c1e9d	-0.019057566
5	0x3d231721	0.03981698
6	0x3dad1a31	0.08452261
7	0xbc69ac21	-0.01426223
8	0x3d8f7673	0.07005014
9	0xbdcf4c45	-0.10121969
10	0xbc4c2930	-0.012460992
11	0xbca02500	-0.019548893
12	0xbd0794c0	-0.033100843
13	0xbd6f7c84	-0.058468357
14	0xbc2c9981	-0.010534645
15	0x3e561e2e	0.2090995
16	0x3d98370a	0.07432373
17	0x3d2927ea	0.04129783
18	0x3e87d279	0.26527765
19	0xbd6a9ef9	-0.057280514
20	0x3e03890f	0.12845252
21	0xbdddf6e6	-0.10838108
22	0xbdc31a36	-0.09526484
23	0xbd115b64	-0.035487548
24	0x3d1b83ec	0.037967607
25	0xbd3f0b50	-0.046641648
26	0x3e4dfc9f	0.20115899
27	0x3d9e7376	0.07736866
28	0xbcc2188e	-0.02369335
29	0x3e1e8c64	0.15483242
30	0x3ca30069	0.019897657
31	0x3d31ba78	0.04339072
32	0xbcd9e049	-0.026596205
33	0x3b3eb36c	0.0029098643
34	0xbd3673b9	-0.044543955
35	0xb98bb1c6	-0.00026644598
36	0xbd2e5aa4	-0.04256691
37	0x3e2acb34	0.16679078
38	0x3e79b2b8	0.24384582
39	0xbd2c1fcf	-0.042022523
40	0x3e30ed9a	0.17278138
41	0xbda55f98	-0.08074874
42	0xbc63d36a	-0.0139053855
43	0x3dd2366d	0.10264287
44	0xbc580670	-0.013185129
45	0xbd8b5451	-0.068031915
46	0xbc652d18	-0.013987802
47	0xbc6b0445	-0.01434428
48	0xbcbba0a4	-0.022903748
49	0xbc9e4ffe	-0.019325253
50	0x3e232b7c	0.15934557
51	0x3c8013b8	0.015634403
52	0xbccf1c49	-0.025282042
53	0x3dd10929	0.10206825
54	0x3c235c6d	0.0099707665
55	0xbd19ed1a	-0.037579633
56	0x3d01f5b4	0.03172846
57	0x3d90eceb	0.070764385
58	0xbc9d8f10	-0.019233257
59	0xbb307017	-0.002692228
60	0xbd02cd44	-0.031934038
61	0x3d62319d	0.055223096
62	0xbc87dfb8	-0.01658617
63	0xbd655b69	-0.05599538

sequential/conv2d_2/Conv2D/ReadVariableOp:0 f4 [64, 64, 3, 3]
0	0xbd951022	-0.07278468
1	0x3d96e0d5	0.07367102
2	0x3d3b8779	0.045783494
3	0xbe572efe	-0.2101402
4	0xbc377d64	-0.011199329
5	0x3e0f00c9	0.13965143
6	0x3de16e80	0.11007404
7	0x3e6cc45a	0.23121777
8	0x3df3c285	0.11902336
9	0xbe27beac	-0.1638133
10	0xbe573666	-0.21016845
11	0xbf0668e3	-0.52503794
12	0xbd8e87c1	-0.06959487
13	0xbe05b6bb	-0.13057987
14	0xbd121ef8	-0.035674065
15	0x3e66ab0d	0.22526188
16	0x3e1cab51	0.15299727
17	0x3e02fefe	0.12792584
18	0xbc880cb8	-0.016607627
19	0x3e3255d2	0.1741555
20	0x3e06ee88	0.1317693
21	0xbd7178ce	-0.0589531
22	0x3d8ef00f	0.06979381
23	0x3ddf4bab	0.109031044
24	0xbbb9a6ca	-0.0056656348
25	0xbd6a6b81	-0.05723143
26	0x3d68b14c	0.05680971
27	0xbc315d4a	-0.0108254645
28	0xbe0f7fe9	-0.14013638
29	0xbca8796c	-0.020565711
30	0xbe773082	-0.24139598
31	0xbe5519ca	-0.20810619
32	0x3a95b2a4	0.0011421037
33	0xbd003abf	-0.031306025
34	0xbd4a73c5	-0.049426813
35	0x3e832765	0.25615993
36	0x3e31fe67	0.17382203
37	0x3e358934	0.1772812
38	0x3e65afb7	0.22430311
39	0x3d6f2c34	0.058391765
40	0xbcc82c1c	-0.024435095
41	0x3d3a779e	0.045524232
42	0xbe38ac03	-0.18034367
43	0xbe7c00fb	-0.24609749
44	0xbe9af604	-0.3026582
45	0x3d82ec54	0.06392732
46	0x3e102ba0	0.14079142
47	0x3c9f97c8	0.019481555
48	0xbd11b148	-0.03556946
49	0xbce38c59	-0.027776884
50	0x3df3a55f	0.118967764
51	0x3d4a205b	0.049347263
52	0xbdc4220e	-0.09576808
53	0xbdb80c7a	-0.08986755
54	0x3a0be01e	0.0005335825
55	0x3d38254a	0.044957437
56	0xbcd2f637	-0.02575217
57	0x3bb97661	0.005659864
58	0x3aeae838	0.001792199
59	0xbd4a06c3	-0.049322855
60	0xbe83b204	-0.25721753
61	0xbe86c3a5	-0.2632114
62	0xbe4886f5	-0.19582732
63	0xbc887f47	-0.016662253
64	0x3ca96a52	0.02068058
65	0x3d1bb9d7	0.038019028
66	0x3c54c3be	0.012986122
67	0xbd871eb5	-0.06597654
68	0xbd186d50	-0.037213624
69	0x3d3ce050	0.04611236
70	0x3c5e5080	0.013568997
71	0xbc86b47a	-0.01644348
72	0x3e01fbd2	0.12693718
73	0x3de3167c	0.11088273
74	0x3e05b985	0.13059051
75	0x3e277de0	0.16356611
76	0x3e909386	0.2823755
77	0x3e476d5f	0.19475316
78	0x3e1168f7	0.14200197
79	0x3e31e414	0.17372161
80	0x3cef261a	0.029192973
81	0x3e255223	0.16144614
82	0x3cbb9f06	0.022902977
83	0xbd994517	-0.07483881
84	0x3dd9d3a1	0.10636068
85	0x3e17e817	0.14834629
86	0x3e67c3ca	0.22633281
87	0x3d7f0afe	0.062266342
88	0x3dc25ab2	0.09489955
89	0xbd009d9a	-0.0314003
90	0xbeba2bf2	-0.36361653
91	0xbefc479f	-0.49273393
92	0xbeae2b55	-0.34017435
93	0xbe22f72d	-0.15914603
94	0xbe9ab8ae	-0.30219024
95	0xbe74c235	-0.23902209
96	0x3e844660	0.25834942
97	0x3e25914f	0.16168712
98	0x3d2d176a	0.042258658
99	0xbdd2933e	-0.102819905
100	0x3d495e8f	0.049162444
101	0xbe50366b	-0.20333259
102	0xbd82cb98	-0.06386489
103	0x3d0d791e	0.034539334
104	0x3cbf9d78	0.023390517
105	0x3e71de59	0.23619975
106	0x3d888f4f	0.06667959
107	0x3e6748ae	0.22586319
108	0x3c3f8371	0.011689053
109	0xbe24b322	-0.16083959
110	0xbe127afe	-0.1430473
111	0x3dc01478	0.09378904
112	0x3e24b65b	0.16085188
113	0x3dde66cb	0.1085945
114	0x3e83a6d6	0.25713223
115	0x3de46c8f	0.111535184
116	0x3e171bfd	0.1475677
117	0xbacc2a93	-0.0015576653
118	0xbd3d2c84	-0.04618503
119	0x3d43b0bd	0.047775973
120	0xbd92176e	-0.07133375
121	0xbce7da98	-0.028302476
122	0xbd36756d	-0.04454558
123	0xbd05323a	-0.032518603
124	0x3dd8bcf7	0.10582917
125	0x3e752f40	0.23943806
126	0x3ca177e4	0.019710489
127	0xbe26c5a5	-0.16286333
128	0xbe7a511b	-0.24445002
129	0xbce9e848	-0.028553143
130	0x3db568c7	0.08857875
131	0x3e8b1c21	0.27169898
132	0xbdd6650a	-0.104684904
133	0xbddefe08	-0.10888296
134	0x3ec213af	0.37905642
135	0xbe01859d	-0.12648626
136	0xbda34ca7	-0.07973605
137	0x3b132e22	0.0022457917
138	0xbd419a28	-0.047266155
139	0xbc27244e	-0.010201527
140	0x3be2ade6	0.006917703
141	0x3c42716a	0.01186786
142	0xbdd364a0	-0.10321927
143	0xbcd86e8a	-0.026419897
144	0xbddb63ce	-0.107123956
145	0xbe66286f	-0.22476362
146	0xbeaab8b7	-0.3334405
147	0x3bd5743d	0.006514101
148	0x3cc12b5c	0.023580246
149	0xbe299799	-0.16561736
150	0xbd0de1d7	-0.034639206
151	0xbd3f5a44	-0.046716943
152	0x3ce88776	0.028384905
153	0x3de46ead	0.11153922
154	0x3da4c047	0.080444865
155	0xbe4234c9	-0.18965448
156	0xbd742569	-0.05960599
157	0xbd8bd4b4	-0.06827679
158	0xbe43e337	-0.19129644
159	0xbe168ecb	-0.14702909
160	0xbda9b539	-0.082865186
161	0xbcd52d33	-0.02602253
162	0xb9f9efb0	-0.00047671562
163	0x3df02423	0.117256425
164	0x3d8b888e	0.06813155
165	0xbe2bfb8e	-0.16795179
166	0x3e0b55db	0.1360697
167	0xbba1f7a2	-0.00494285
168	0xbe10bfb3	-0.14135627
169	0xbd1eaf50	-0.03874141
170	0xbd842096	-0.06451528
171	0xbd47a2f2	-0.04873938
172	0xbe8476e8	-0.25871968
173	0x3c8bf218	0.017083213
174	0x3e1114d5	0.14168103
175	0x3bb97300	0.005659461
176	0x3b2d457e	0.0026439126
177	0x3a453c30	0.0007523922
178	0xbbb990b3	-0.0056630014
179	0xbe653591	-0.22383715
180	0xbe1c6960	-0.15274572
181	0xbd283f7e	-0.041076176
182	0xbe566a6a	-0.20939031
183	0xbd0a3771	-0.03374428
184	0xbdf6817a	-0.120364144
185	0xbd011785	-0.03151657
186	0x3e231840	0.1592722
187	0x3ba803cf	0.005127407
188	0x3e08b341	0.1334963
189	0x3cf33cbd	0.029692048
190	0x3e08e985	0.1337033
191	0xbdc5a038	-0.096497
192	0x3d970bf3	0.07375326
193	0xbcfc7974	-0.030819632
194	0xbe966ee3	-0.29381475
195	0x3ddaf144	0.10690549
196	0x3dad48f9	0.08461184
197	0xbdddb4a9	-0.10825474
198	0x3e2a6d58	0.16643274
199	0x3c3ef17d	0.011654255
200	0x3d58a21c	0.052888975
201	0x3c65cac6	0.014025396
202	0xbda570f3	-0.08078184
203	0xbdc832cf	-0.09775316
204	0x3e73efa4	0.23821884
205	0xbc9c5110	-0.019081622
206	0xbd0df982	-0.034661777
207	0xbe07eecf	-0.13274692
208	0xbe5cda92	-0.21567753
209	0xbf07b2a1	-0.5300694
210	0x3d8a4c77	0.06752866
211	0x3d4366bd	0.0477054
212	0xbd4f13ab	-0.050555866
213	0x3cf4fa2d	0.02990445
214	0xbe375031	-0.17901684
215	0xbe3504e5	-0.17677648
216	0xbd438e76	-0.047743283
217	0xbe819a60	-0.2531309
218	0x3c44d406	0.012013441
219	0xbdb5e738	-0.08881992
220	0x3cc8e718	0.024524257
221	0xbe345503	-0.17610554
222	0x3ddc15b5	0.10746328
223	0xbdac5c0e	-0.084159955
224	0xbe093eb9	-0.13402833
225	0x3ded037e	0.11572932
226	0xbd1b3897	-0.037895765
227	0xbe1648bf	-0.14676188
228	0x3e401ee0	0.18761778
229	0x3dcd0d33	0.10012283
230	0x3d91a3f6	0.07111351
231	0x3e4f9946	0.20273313
232	0x3d40e277	0.047090974
233	0xbd99756c	-0.074930996
234	0x3e4feed2	0.20305946
235	0x3d87741b	0.06613942
236	0x3c3357ce	0.010946227
237	0x3db6728a	0.08908565
238	0x3e05ad84	0.13054472
239	0x3e0c4865	0.13699491
240	0xbbdc22ad	-0.006718001
241	0x3d552e14	0.052045897
242	0xbe6a784a	-0.22897449
243	0xbed4c75f	-0.41558358
244	0xbe57397a	-0.2101802
245	0xbe5a035b	-0.21290343
246	0x3a72472c	0.0009242173
247	0xbd82bad4	-0.06383291
248	0xbcfe9021	-0.031074585
249	0x3d39ac53	0.045330357
250	0xbd205335	-0.039141852
251	0x3ad28536	0.0016061428
252	0x3e212d39	0.15739907
253	0x3dc1fb7e	0.094717965
254	0x3e6e2367	0.23255692
255	0xbd48bbf8	-0.049007386

sequential/conv2d_2/BiasAdd/ReadVariableOp:0 f4 [64]
0	0x3e293dda	0.16527501
1	0x3e6643e3	0.22486834
2	0xbd8d2bb9	-0.06893105
3	0x3e09c0d0	0.13452458
4	0x3e099c04	0.13438421
5	0xbbe1eef9	-0.006894943
6	0xbd46e16a	-0.048554815
7	0x3e85c31d	0.26125422
8	0x3e59122d	0.2119834
9	0x3e275c3e	0.16343781
10	0xbd8f9f2c	-0.070127815
11	0x3e8922cf	0.2678437
12	0x3d9c4555	0.076304115
13	0xbd253cc1	-0.040341143
14	0xbcca66b9	-0.024707185
15	0xbd96078a	-0.07325657
16	0xbd2a8d26	-0.041638516
17	0xbcc5c426	-0.024141382
18	0xbcc955be	-0.024577018
19	0x3d11510a	0.035477675
20	0xbc52f036	-0.012874654
21	0x3e25beb4	0.16186029
22	0xbe1eefaa	-0.15521112
23	0x3dbfcf96	0.09365766
24	0xbd4a2f41	-0.04936147
25	0xbca3fe22	-0.02001864
26	0xbce51678	-0.027964815
27	0x3ebe8580	0.37211227
28	0xbd6934ba	-0.05693505
29	0xbce0a811	-0.02742389
30	0x3ce69cba	0.028150905
31	0xbd131615	-0.03590973
32	0x3e47eebf	0.19524668
33	0x3ea8ba36	0.32954568
34	0xbcf4208c	-0.029800676
35	0x3e27c900	0.16385269
36	0x3d3d5503	0.04622365
37	0x3dd6d470	0.10489738
38	0x3e54de2b	0.20787875
39	0xbdb7cc46	-0.08974509
40	0xbdfa775d	-0.12229798
41	0xbd1d8280	-0.038454533
42	0x3eba06d1	0.36333326
43	0xbd32a70a	-0.043616332
44	0xbaf99a8c	-0.0019043251
45	0x3e01d687	0.12679492
46	0xbd250250	-0.04028541
47	0xbd8f4893	-0.06996264
48	0xbd215649	-0.03938893
49	0xbe1e7e7a	-0.15477934
50	0xbc8107ee	-0.015750851
51	0xbd6fdbe0	-0.0585593
52	0x3d82bb27	0.06383353
53	0xbd40073d	-0.046881903
54	0xbd2c1640	-0.042013407
55	0x3e88c1a4	0.26710236
56	0xbc888df1	-0.016669245
57	0xbde70d9d	-0.112818934
58	0xbd0bdcc6	-0.034146093
59	0x3db3cf7e	0.0877981
60	0xbd761fb7	-0.06008884
61	0x3cef9392	0.029245172
62	0xbd1d89f5	-0.038461644
63	0xbd5273ba	-0.051379897

sequential/conv2d_1/Conv2D/ReadVariableOp:0 f4 [64, 32, 3, 3]
0	0xbdb689dd	-0.08913014
1	0xbe233384	-0.1593762
2	0xbcb369a8	-0.021900967
3	0x3d289770	0.041160047
4	0x3e14be93	0.14525823
5	0x3de44629	0.111461945
6	0x3daa47a8	0.083144486
7	0x3dfdb1cc	0.12387428
8	0xbceaa301	-0.02864218
9	0x3db97b58	0.09056729
10	0x3cf33e41	0.02969277
11	0x3d8e05b5	0.06934682
12	0xbe0864fb	-0.13319771
13	0xbb1778dc	-0.002311281
14	0x3d8690e8	0.065706074
15	0xbe309394	-0.17243797
16	0xbd3761b2	-0.044770904
17	0x3d4a1e6a	0.04934541
18	0xbdacb379	-0.08432669
19	0xbe0b6506	-0.13612756
20	0x3caa38e8	0.020779088
21	0x3ddb756b	0.10715755
22	0x3d36ced9	0.04463086
23	0x3db1ffe6	0.08691387
24	0x3dbe124a	0.09280832
25	0x3da5e10c	0.08099565
26	0x3bc15307	0.00589979
27	0x3cbf8f73	0.023383832
28	0x3d60043e	0.054691546
29	0xbbe508d5	-0.0069895783
30	0xbd463b46	-0.04839637
31	0xbd67885b	-0.056526523
32	0xbe0f473d	-0.13992019
33	0xbe474c30	-0.19462657
34	0xbedc8b38	-0.43074965
35	0xbe9aa7fd	-0.3020629
36	0x3dd1ba02	0.10240556
37	0x3dbc0a20	0.09181619
38	0x3de5e3ee	0.11225115
39	0xbe02587e	-0.1272907
40	0xbeab140e	-0.33413738
41	0xbe3eb2db	-0.18622915
42	0xbe08f86f	-0.1337602
43	0xbe58a5be	-0.21156976
44	0xbe6cf39a	-0.23139802
45	0xbdb01aa1	-0.08598829
46	0xbc1a3d73	-0.009414065
47	0xbead8d7e	-0.33897012
48	0xbd54d6d5	-0.051962692
49	0xbe0790ce	-0.13238832
50	0xbdb0d056	-0.08633487
51	0xbd8f516b	-0.06997951
52	0x3e8247d4	0.25445426
53	0x3ca18bb0	0.019719929
54	0x3ae3730d	0.0017353013
55	0xbd707b19	-0.058711145
56	0x3ced1168	0.028938964
57	0xba80eae1	-0.0009835624
58	0xbd319751	-0.043357197
59	0xbc2056f4	-0.009786356
60	0x3dd7fc2e	0.10546146
61	0x3d771a72	0.060327955
62	0x3c175630	0.009236857
63	0x3e897b25	0.26851764
64	0x3e879760	0.26482677
65	0x3d8d03f3	0.06885519
66	0x3e59d9aa	0.21274439
67	0x3e483169	0.19550098
68	0x3d8d4612	0.068981305
69	0xbe2bd616	-0.16780886
70	0xbe9f90c7	-0.31165144
71	0xbe4ede1c	-0.20201916
72	0x3e172222	0.14759114
73	0x3e45f7bb	0.19332783
74	0x3d63093b	0.055428725
75	0x3d054ec8	0.032545835
76	0x3d7fbb3a	0.062434413
77	0xbd5b68b7	-0.05356666
78	0xbe3d19ff	-0.18466948
79	0xbea1114d	-0.31458512
80	0xbe5cd2c2	-0.21564773
81	0x3c6d825b	0.014496411
82	0xbe25247a	-0.16127196
83	0xbe491133	-0.19635467
84	0xbe2bf5b9	-0.16792955
85	0xbe2ad515	-0.16682847
86	0xbc1653d3	-0.009175259
87	0xbe5215ce	-0.2051613
88	0xbd2530a7	-0.0403296
89	0x3e18439d	0.14869542
90	0x3ecc7f75	0.39940992
91	0x3ed40147	0.41407225
92	0x3e8e7c97	0.2782943
93	0x3d85b72c	0.06529078
94	0xbd4c4ec2	-0.049879797
95	0xbe410e06	-0.18853006
96	0xbe569e50	-0.20958829
97	0xbec5c569	-0.38627174
98	0xbebe2f9e	-0.37145704
99	0x3e652d1a	0.22380486
100	0x3e11fa7e	0.14255711
101	0x3e11d76a	0.1424233
102	0xbe3a8393	-0.18214254
103	0xbe567363	-0.20942454
104	0xbdb391be	-0.087680325
105	0xbe2b4705	-0.1672631
106	0xbe86eb56	-0.26351422
107	0xbe0a592c	-0.13510579
108	0xbc1109c3	-0.008852425
109	0x3cdec42a	0.027193148
110	0x3e44e5c3	0.19228272
111	0x3e1fd922	0.15610173
112	0x3dc2a62a	0.095043495
113	0x3ca7fef1	0.020507308
114	0x3c2516f3	0.010076272
115	0xbd76d864	-0.06026496
116	0xbe7e6e28	-0.24846709
117	0x3ba43b80	0.0050119758
118	0xbd2b2e8b	-0.041792434
119	0x3d1f181f	0.038841363
120	0x3daf5943	0.08561947
121	0x3d2c9e2a	0.042143025
122	0x3c98df25	0.018661091
123	0xbd36f257	-0.044664707
124	0xbd9fc3ec	-0.07801041
125	0x3c65a997	0.014017484
126	0xbdd05d9c	-0.101741046
127	0xbe3bd2d6	-0.18342146
128	0xbde4b4fc	-0.111673325
129	0xbd4d6601	-0.050146107
130	0x3d4f5fee	0.050628595
131	0x3e10ed6a	0.14153066
132	0x3d68fe6d	0.056883264
133	0x3d598957	0.053109493
134	0x3de1e5a8	0.110301316
135	0xbe9d919d	-0.30775157
136	0xbe9e4c97	-0.30917808
137	0xbe8fbfa4	-0.28075898
138	0xbe2fe55d	-0.17177339
139	0x3d13cdc7	0.036084916
140	0xbc96d956	-0.01841418
141	0x3e06abd4	0.13151485
142	0x3ea87881	0.32904437
143	0x3e31e37d	0.17371936
144	0xbe0f324b	-0.13984029
145	0xbe1b1b1d	-0.15147062
146	0xbd3af389	-0.04564241
147	0xbd85402b	-0.0650638
148	0x3c21dcc1	0.009879292
149	0xbdf15104	-0.11783031
150	0x3d852023	0.0650027
151	0x3ddb766f	0.10715949
152	0x3d0b1126	0.0339519
153	0xbe8c7948	-0.2743628
154	0xbec13db5	-0.3774239
155	0xbe9b51cb	-0.3033584
156	0xbcd00939	-0.025395023
157	0x3d3ccafb	0.046092015
158	0xbc8c118e	-0.017098214
159	0x3e1d3b34	0.15354615
160	0x3ec34eb8	0.38145995
161	0x3e444300	0.19166183
162	0x3ee2677e	0.44219583
163	0x3ebc92df	0.36830804
164	0x3e59d1d8	0.21271455
165	0x3e029b9e	0.12754676
166	0xbba56651	-0.0050475975
167	0xbc7700a7	-0.015075839
168	0xbe744416	-0.23854098
169	0xbf19b8b9	-0.6004749
170	0xbee55e92	-0.44798714
171	0x3e403437	0.18769918
172	0x3dba4ff3	0.0909728
173	0xbd2fcd32	-0.0429203
174	0x3dc4a7b0	0.09602296
175	0x3dd7d3ab	0.10538419
176	0x3d54e891	0.051979605
177	0xbd39d38b	-0.04536776
178	0xbe03d49c	-0.12874073
179	0xbd6db66c	-0.0580353
180	0x3d09a855	0.0336078
181	0xbd9e9a36	-0.07744257
182	0x3d64b94e	0.055840783
183	0xbcb7882e	-0.022403803
184	0x3d23f03c	0.040024027
185	0x3c3ce6f1	0.01152967
186	0xbd56d29a	-0.05244694
187	0xbd450c93	-0.048107695
188	0xbd5efd25	-0.054440636
189	0xbe43daa6	-0.19126377
190	0xbe049fae	-0.12951538
191	0xbdfdba88	-0.12389094
192	0xbd5c5de0	-0.053800464
193	0x3db0039a	0.08594437
194	0x3db60532	0.0888771
195	0xbc548957	-0.0129721975
196	0x3d2e2c1c	0.042522535
197	0x3e2cf336	0.16889653
198	0x3eb444ea	0.35208827
199	0x3d8c2690	0.06843293
200	0x3df6bf7d	0.12048242
201	0xbd800b5c	-0.06252167
202	0xbd0a06a7	-0.03369775
203	0x3dac91ba	0.08426233
204	0xbeb7ceae	-0.35899872
205	0xbed378ed	-0.41303197
206	0xbe827352	-0.25478607
207	0xbd4f8f5a	-0.05067382
208	0xbe088259	-0.13330974
209	0xbe5d50f6	-0.21612915
210	0xbd2ba0c5	-0.04190137
211	0xbc9a52ea	-0.018838365
212	0x3c3b3087	0.011425144
213	0x3d9bcd47	0.07607513
214	0x3de72880	0.11287022
215	0x3d482043	0.048858892
216	0xbd9911bd	-0.074740864
217	0xbc22827f	-0.009918808
218	0x3da937a0	0.08262563
219	0xbc8545cf	-0.016268639
220	0x3db492e3	0.08817079
221	0xbb6dfc3b	-0.003631367
222	0x3bea918d	0.0071584643
223	0xbdf87d07	-0.12133222
224	0xbcd651f5	-0.026162127
225	0xbea66156	-0.32496136
226	0xbe98cfb4	-0.29845965
227	0xbe593175	-0.21210273
228	0xbd84fc9d	-0.06493495
229	0xbbb3334d	-0.005468762
230	0x3dd65794	0.10465923
231	0x3e560597	0.2090057
232	0x3e802f65	0.2503616
233	0x3e074e37	0.1321343
234	0xbda2d565	-0.07950858
235	0xbe81315c	-0.2523297
236	0xbe7841ce	-0.24243852
237	0xbe6be2ca	-0.23035732
238	0xbde5a64d	-0.1121336
239	0x3e041e73	0.1290224
240	0x3e4fab0f	0.20280097
241	0x3e3507e4	0.17678791
242	0x3e1dd16b	0.15411918
243	0x3df8aa05	0.12141804
244	0x3d50d319	0.05098257
245	0xbce08acc	-0.027409934
246	0x3d9dced2	0.077054635
247	0x3db49245	0.08816961
248	0xbd730ccd	-0.05933838
249	0xbc6e2dc8	-0.014537282
250	0xbd878aa0	-0.066182375
251	0xbe3f9d1b	-0.18712275
252	0xbe8e2d94	-0.27769148
253	0xbe5f425d	-0.2180266
254	0xbda0f2bd	-0.07858799
255	0xbc8f2dbc	-0.017477863

sequential/conv2d_1/BiasAdd/ReadVariableOp:0 f4 [64]
0	0xbcb64654	-0.022250332
1	0xbd35c65f	-0.044378635
2	0x3d66f9c2	0.05639053
3	0xbd4bea0a	-0.049783744
4	0x3ed5d6b3	0.41765365
5	0x39db0a5c	0.00041778653
6	0x3e3598b4	0.17734033
7	0xbccd0375	-0.025026063
8	0xba111107	-0.00055338483
9	0xbe3b9aae	-0.18320724
10	0xbd5663f6	-0.052341424
11	0xbd16ab95	-0.036784727
12	0xbdb954cd	-0.090493776
13	0xbc6f4d40	-0.01460582
14	0x3dfe28d5	0.12410132
15	0xbd22b558	-0.039723724
16	0x3d934acf	0.07192003
17	0x3d9b0dac	0.07570967
18	0x3db321a1	0.087466486
19	0x3d3da02e	0.046295337
20	0x3be9beab	0.007133325
21	0x3e741cac	0.23839062
22	0x3d218f1a	0.039443113
23	0xbcbfa98e	-0.02339628
24	0x3d135fe8	0.035980135
25	0x3d272078	0.04080245
26	0xbe37d96b	-0.17954032
27	0xbde743de	-0.112922415
28	0x3d92f5da	0.07175799
29	0xbdcf5016	-0.10122697
30	0x3d0a3f04	0.033751503
31	0xbe16b432	-0.14717177
32	0xbd45546a	-0.048176207
33	0xbcd0001d	-0.025390679
34	0x3ccca8d4	0.024982847
35	0xbe36ca51	-0.17850615
36	0x3d2cfa51	0.042230908
37	0x3d1f8ba2	0.038951524
38	0x3a1b7530	0.0005930243
39	0xbca79466	-0.020456504
40	0xbd8f5299	-0.06998176
41	0x3dab5171	0.08365143
42	0x3dbed64a	0.09318216
43	0x3dc52d29	0.09627754
44	0xbca70eb8	-0.02039276
45	0x3e908d86	0.28232974
46	0x3e64759a	0.22310486
47	0xbccce9f3	-0.0250139
48	0xbdad96c3	-0.08476021
49	0xbd8cd636	-0.06876795
50	0x3e09c98c	0.1345579
51	0x3d824df8	0.063625276
52	0x3cf2c960	0.029637039
53	0x3c458407	0.012055404
54	0xbcc0b6f4	-0.023524739
55	0x3d29f115	0.04148968
56	0xbd2fdb98	-0.04293403
57	0xbcfcaf67	-0.030845357
58	0x3e00ca3a	0.12577143
59	0x3cec64be	0.028856631
60	0xbc968976	-0.018376093
61	0xbdc5ab27	-0.09651785
62	0x3e8fb5b7	0.28068325
63	0x3db07aba	0.08617158

sequential/conv2d/Conv2D/ReadVariableOp:0 f4 [32, 3, 3, 3]
0	0x3e82db2e	0.25557846
1	0x3ea6ac7b	0.32553467
2	0x3d886a46	0.06660895
3	0x3db90fb9	0.09036202
4	0xbdb132db	-0.08652278
5	0xbe663de4	-0.22484547
6	0xbe3f343c	-0.1867227
7	0xbe65ace2	-0.22429231
8	0xbd268907	-0.040658023
9	0x3e71ba76	0.23606285
10	0x3d520866	0.05127754
11	0x3b91d2bc	0.0044501703
12	0xbd2be7a9	-0.041968975
13	0xbe3b2e7f	-0.18279456
14	0xbe440450	-0.1914227
15	0x3c3f5635	0.011678268
16	0xbdad2489	-0.08454234
17	0xbd23ce74	-0.03999181
18	0x3d35a287	0.04434445
19	0xbcfafa41	-0.030636908
20	0x3e05c543	0.1306353
21	0xbdd96deb	-0.10616668
22	0xbdb44070	-0.08801353
23	0xbd6d6a9e	-0.057963006
24	0x3d3c58ed	0.045983244
25	0x3d017715	0.031607706
26	0x3e11c903	0.14236836
27	0xbb753023	-0.0037412725
28	0xbce0a586	-0.027422678
29	0x3db0252d	0.08600841
30	0x3e1b7aec	0.1518361
31	0x3e30527c	0.17218965
32	0x3e70ca50	0.23514676
33	0xbe31cbae	-0.17362854
34	0xbe5c2138	-0.21497047
35	0xbd94d9e3	-0.07268121
36	0xbd28a688	-0.04117444
37	0x3e18360d	0.14864369
38	0x3e0c56dd	0.1370501
39	0xbd9db03e	-0.07699631
40	0x3d029fb0	0.03189057
41	0xbc9e59ba	-0.019329894
42	0xbe563d0a	-0.20921722
43	0xbe48ce3f	-0.19609927
44	0xbb156048	-0.0022792984
45	0x3e58870c	0.21145266
46	0x3e1ee6f5	0.1551779
47	0xbca113b2	-0.019662712
48	0xbd27883c	-0.040901408
49	0x3e32cdd3	0.17461328
50	0x3d3b6bc9	0.04575709
51	0xbe82b445	-0.2552816
52	0xbdeb13d9	-0.11478395
53	0xbe449e90	-0.19201112
54	0x3d06eff7	0.032943692
55	0x3dd66c34	0.10469857
56	0xbd6825e0	-0.056676745
57	0xbdfccc06	-0.12343602
58	0xbe1c8926	-0.15286693
59	0xbd96dd0b	-0.07366379
60	0xbd83757e	-0.06418894
61	0xbdd85d64	-0.10564688
62	0x3d945d9d	0.07244418
63	0x3d10437d	0.03522061
64	0xbd345904	-0.044030204
65	0x3d6a4a09	0.05719951
66	0xbdca5667	-0.09879761
67	0x3d5acbe4	0.0534171
68	0xbd467774	-0.048453763
69	0xbd5f55a8	-0.054525048
70	0xbdd1ba82	-0.10240652
71	0xbe192338	-0.14954841
72	0x3e5b99f8	0.21445453
73	0x3e26d82d	0.16293402
74	0x3d8fecad	0.07027564
75	0xbdbeb4e0	-0.09311843
76	0x3e18e000	0.14929199
77	0x3e295c83	0.16539197
78	0x3dbb9be2	0.09160592
79	0xbd26c8e6	-0.040718935
80	0x3d9a08cb	0.075212084
81	0x3dc5c714	0.09657112
82	0x3e7009f5	0.23441298
83	0x3dee56f2	0.11637677
84	0x3d53bf37	0.05169603
85	0x3dbeb836	0.09312479
86	0x3e026ba4	0.12736374
87	0xbe245c0a	-0.16050735
88	0xbd80b3b7	-0.06284278
89	0xbd931c36	-0.07183115
90	0x3df3bc76	0.119011804
91	0x3e277d61	0.16356422
92	0x3e269e84	0.16271406
93	0x3bdf02ff	0.006805777
94	0xbdf03f73	-0.11730852
95	0x3ddcfff1	0.107910044
96	0xbd89b5a6	-0.067241
97	0xbd5ad34d	-0.05342417
98	0xbdcf6c0a	-0.10128029
99	0xbe4edca4	-0.20201355
100	0xbeaeda08	-0.3415072
101	0xbeb49bff	-0.35275266
102	0xbe3a2d5d	-0.18181367
103	0xbea382b2	-0.3193565
104	0xbe2b3be2	-0.16722062
105	0x3df3f07e	0.119111046
106	0x3d8f94a4	0.07010773
107	0x3d2e058f	0.04248577
108	0xbdb5c403	-0.08875277
109	0xba83c171	-0.0010052157
110	0x3e4bfb12	0.19919994
111	0xbe3097ae	-0.17245361
112	0xbe519bfd	-0.20469661
113	0x3e2066df	0.15664242
114	0x3d18337a	0.037158467
115	0xbea5365c	-0.32268035
116	0xbe7ee48e	-0.24891874
117	0x3e119b98	0.1421951
118	0x3e4c078a	0.19924751
119	0x3d993a6e	0.07481848
120	0xbd005def	-0.031339582
121	0xbe713a6c	-0.23557442
122	0xbda4b382	-0.08042051
123	0xbe1f839a	-0.15577546
124	0xbeb5187e	-0.3537025
125	0xbd780d7f	-0.060559746
126	0xbc69ad99	-0.01426258
127	0x3ddec46d	0.10877309
128	0x3e33ca68	0.1755768
129	0xbe182d3c	-0.14861006
130	0x3c2e963f	0.010655939
131	0x3d0e2000	0.034698486
132	0xbd0889c5	-0.033334512
133	0xbc5cec95	-0.01348414
134	0x3d95785d	0.07298348
135	0xbdc286e5	-0.09498385
136	0xbdebdffc	-0.11517331
137	0xbe8ee431	-0.2790847
138	0x3da7f62a	0.08201249
139	0xbe7ed739	-0.24886788
140	0xbe43eff9	-0.19134511
141	0xbd70a1fc	-0.05874823
142	0x3ccd6aa4	0.025075264
143	0xbcd5b18b	-0.026085636
144	0x3d1e685b	0.03867374
145	0xbd7b99cc	-0.06142597
146	0xbcad46f0	-0.02115199
147	0x3e498c68	0.19682467
148	0x3d8443ef	0.0645827
149	0xbcd8ea07	-0.02647878
150	0x3c0b7a25	0.008513008
151	0xbd2b127a	-0.041765667
152	0xbdb02f46	-0.08602767
153	0x3e809634	0.25114596
154	0xbd6b2544	-0.057408586
155	0xbe191523	-0.1494947
156	0x3e34d1bd	0.17658134
157	0x3db678da	0.08909769
158	0xbe36454b	-0.1779987
159	0x3e9972dc	0.29970443
160	0x3d425c93	0.047451567
161	0x3d6a641e	0.057224385
162	0xbc69bbf3	-0.014266002
163	0xbe4a9f71	-0.19787385
164	0xbde48f27	-0.11160117
165	0x39355a82	0.00017295222
166	0xbc940ff8	-0.01807402
167	0xbd1f85c0	-0.038945913
168	0xbb859a5f	-0.0040772404
169	0x3c4e8bc6	0.012606567
170	0xbe2b44a5	-0.16725405
171	0x3d7ca000	0.061676025
172	0x3ddc5f92	0.10760416
173	0x3cad429f	0.021149931
174	0x3de80f6f	0.11331069
175	0x3bc2366b	0.0059268973
176	0x3a4a7cc7	0.0007724282
177	0x3d7ed2ef	0.06221288
178	0x3dc498f0	0.09599483
179	0x3dcfa7a5	0.101393975
180	0x3cfe0190	0.031006604
181	0x3e0bec31	0.13664319
182	0x3d92ed04	0.071741134
183	0xbd39a74e	-0.04532557
184	0xbda0dddf	-0.078548186
185	0x3db53bf2	0.08849324
186	0x3b165455	0.002293845
187	0x3d7aab72	0.06119866
188	0x3df94813	0.1217195
189	0x3da3c249	0.07996041
190	0x3d98e0cd	0.07464752
191	0xbd405610	-0.046957076
192	0x3e328e6b	0.1743714
193	0x3e1bcbbc	0.15214437
194	0xbdcbbad1	-0.09947742
195	0xbe52f241	-0.20600225
196	0xbdc98ed0	-0.098416924
197	0x3e76e0af	0.24109147
198	0xbd95dc40	-0.073174
199	0xbd26d1a7	-0.040727284
200	0x3d782ee5	0.060591597
201	0xbcd41496	-0.025888722
202	0x3d9cfee9	0.07665808
203	0xbe3293b0	-0.17439151
204	0xbe6ee252	-0.23328522
205	0xbe19b0d1	-0.15008856
206	0x3e8a7b81	0.2704735
207	0xbcbf020e	-0.02331641
208	0xbe7ae8e0	-0.24502897
209	0xbe71c788	-0.23611271
210	0x3e33cb5f	0.17558049
211	0x3d847f41	0.06469584
212	0xbe923538	-0.28556228
213	0xbd1e4c19	-0.03864679
214	0x3da5283a	0.08064313
215	0x3d73687d	0.05942582
216	0xbd760358	-0.060061783
217	0xbe688c50	-0.22709775
218	0xbd7b4e56	-0.061354004
219	0xbd62ffed	-0.05541985
220	0xbdaade68	-0.08343202
221	0x3ada3202	0.0016646984
222	0xbd9b9abb	-0.07597872
223	0xbe3fe05e	-0.18737933
224	0xbda13ea4	-0.07873276
225	0x3e780ddb	0.24224035
226	0x3e603c66	0.2189804
227	0x3e2162e6	0.15760383
228	0x3dd5cc7b	0.10439392
229	0x3e72b693	0.23702459
230	0x3d5e7e1f	0.054319497
231	0x3e2eeed0	0.17083287
232	0x3e57e90a	0.21084991
233	0x3ddd4f5c	0.10806152
234	0xbe23476d	-0.15945216
235	0xbe303e1b	-0.17211191
236	0xbd2b7d12	-0.041867323
237	0x3d46b1d3	0.04850943
238	0xbe44c744	-0.19216639
239	0xbd8b0c12	-0.067894116
240	0xbe1b9b86	-0.15196046
241	0xbe397a53	-0.18113069
242	0x3d86af95	0.06576458
243	0xbdd0ab95	-0.10188977
244	0xbe332669	-0.17495121
245	0x3e26cef7	0.16289888
246	0x3e3349b6	0.17508587
247	0xbe4bd006	-0.19903573
248	0xbd7b99dd	-0.061426032
249	0xbdc90907	-0.09816175
250	0x3e504f43	0.20342736
251	0x3d47f29a	0.048815347
252	0x3d539258	0.051653236
253	0xbde9f5ae	-0.11423813
254	0xbcafe58b	-0.02147176
255	0x3e818626	0.2529766

sequential/conv2d/BiasAdd/ReadVariableOp:0 f4 [32]
0	0x3c59e858	0.013300024
1	0x3c5e0d9a	0.013553048
2	0xbe255680	-0.16146278
3	0xbd3ad62c	-0.045614406
4	0x3e3ac3e6	0.18238792
5	0xbdf9ea6a	-0.12202914
6	0xbe52a54c	-0.20570868
7	0x3d3420a8	0.043976456
8	0x3c57cd64	0.013171528
9	0x3c82fed2	0.015990648
10	0x3e1135f5	0.14180739
11	0xbe450421	-0.19239856
12	0x3cb06d3f	0.021536468
13	0xbe2a84cb	-0.16652219
14	0x3cb49e17	0.02204804
15	0x3d850ffb	0.06497189
16	0x3da6972b	0.08134302
17	0x3d85e15d	0.06537125
18	0x3b1ac2b0	0.0023614578
19	0x3c453fde	0.012039153
20	0xbcded029	-0.027198868
21	0x3bc74b86	0.006082001
22	0x3e38a179	0.18030347
23	0x3c243f26	0.010024821
24	0x3bfd64fc	0.0077329855
25	0xbc8727bb	-0.016498437
26	0xbc2f896b	-0.010713915
27	0x3ca613c2	0.020273093
28	0x3c2ff35e	0.010739176
29	0x3c9a3eff	0.018828867
30	0xba710a6f	-0.0009194975
31	0xbde8d0cb	-0.11367949
