dnn-models/HAR-CNN-tucker2_decomp.onnx (onnx, 37623 bytes, 14 tensors)

dense/kernel/read__15 f4 [1152, 6]
0.08317637 0.04931475 0.0784649 -0.17291994 0.17521065 -0.082578294 0.08560613 0.024159381
0.008092934 -0.14395519 0.11948822 -0.03079551 0.03815295 -0.033177365 -0.03181589 -0.14811084
0.08304201 -0.06517009 0.0062271534 -0.006566054 -0.01542574 -0.070502 0.019691909 -0.09176066
0.012382745 -0.015619967 0.036004093 -0.057823505 0.06842254 0.010979165 -0.0068624434 -0.09378979
-0.035726435 -0.09167075 -0.0039061136 -0.032137133 0.045064017 -0.012397047 0.0091553815 -0.015630335
0.07450102 -0.016950108 0.10028513 0.04413208 0.07791394 -0.06061422 0.10287244 -0.07423913
0.09550431 0.0017896981 0.053909846 -0.15788896 0.07916671 -0.06518232 0.069961466 0.049693905
0.08647626 -0.10194694 -0.013304716 -0.040711336 -0.012657612 -0.045615345 -0.034212004 -0.12097723
0.090265475 -0.031773116 -0.01916059 -0.047625564 -0.03769429 -0.035901878 0.03574604 -0.036755867
0.086806275 -0.03224593 0.007988411 -0.09257067 0.018422227 0.0039650747 0.07232828 -0.032919113
-0.00014744657 -0.1398185 0.018480988 -0.033878926 0.07712641 -0.036819626 0.0087356195 -0.05346458
0.13388681 -0.04132183 0.043561623 -0.029991044 -0.0047912747 -0.06373868 0.0327695 0.03141535
0.07535943 -0.037517928 -0.013512879 0.17741978 -0.24022676 0.07711875 -0.02080727 -0.0039632665
-0.0044564963 0.11646294 -0.09075195 0.08057401 -0.021770662 0.027053183 -0.038279712 0.12768032
-0.13666959 0.05447419 0.026600258 -0.053869423 -0.004971296 0.06462215 -0.06239683 0.009245803
0.08086333 0.049990207 -0.037513554 0.0322547 0.0059386715 -0.016953422 -0.019662064 -0.00338083
-0.06293679 0.08876601 -0.04989456 0.06343253 -0.03885752 0.042399004 0.0020676118 -0.030738363
-0.046747718 -0.037457533 0.002192434 0.03470683 -0.019471148 0.04248706 -0.13834873 0.008742181
-0.0061395047 0.05867186 -0.040877964 0.13287736 -0.23393409 -0.01886519 0.010338252 -0.059071
0.03934412 0.17201634 -0.22510433 0.007813089 -0.011892945 0.008134333 -0.028396986 0.040814683
-0.113250285 -0.082824044 0.07320922 0.028694568 0.07094435 -0.081825405 0.0023372455 -0.046951212
0.085530154 0.023441335 -0.0012949333 0.0077388696 -0.035318177 0.0045169834 -0.013881532 -0.058928918
-0.0413953 -0.0077732825 -0.050128188 0.0016675381 0.07166239 -0.04618742 0.020922195 0.060971167
-0.08300503 -0.07307473 -0.00048040095 0.00066083705 0.01046636 0.1453089 -0.14491922 0.053528517
-0.057257194 0.045725875 -0.1315951 0.10289378 0.121112965 -0.16609815 -0.06869435 -0.024496898
-0.1697764 0.1034755 0.1102344 -0.055481806 -0.049106073 -0.03496202 -0.114350185 0.07961295
0.08417044 -0.16300605 -0.059894253 -0.041152354 -0.18610412 0.042042773 0.047999732 -0.1534097
-0.028899096 -0.026689645 -0.13720283 0.059362676 0.060246408 -0.12092438 -0.08762979 -0.0132270735
-0.194495 0.13008367 0.1235425 -0.05179874 -0.050592165 0.03354594 -0.18911976 0.037219808
0.0374479 -0.109508686 -0.03244357 0.029999686 -0.12223444 0.06550262 0.06288034 -0.050536595
-0.08272067 -0.004920253 -0.15439963 0.05589518 0.052149836 -0.03578132 -0.050844915 -0.0148787955
-0.15298353 0.07805056 0.08720411 -0.06092463 -0.022004822 0.019111918 -0.1480819 0.113653846
00000000: 5f58 aa3d 43fe 493d 35b2 a03d ed11 31be
00000010: 6c6a 333e cf1e a9bd 4452 af3d e5e9 c53c
00000020: 3a98 043c fd68 13be 3db6 f43d de46 fcbc
00000030: 4546 1c3d fde4 07bd 6151 02bd 5eaa 17be
00000040: ee11 aa3d e577 85bd 260d cc3b 0e28 d7bb
00000050: 3ebc 7cbc 5a63 90bd ed50 a13c 03ed bbbd
00000060: ffe0 4a3c e4ea 7fbc 0779 133d 57d8 6cbd
00000070: 1e21 8c3d f5e1 333c 59de e0bb dd14 c0bd
00000080: e255 12bd e0bd bbbd b6fd 7fbb 3aa2 03bd
00000090: 0c95 383d fc1c 4bbc 7400 163c 300b 80bc
000000a0: fe93 983d f4da 8abc 4a62 cd3d d7c3 343d
000000b0: 5891 9f3d 9e46 78bd c9ae d23d af0a 98bd
000000c0: c497 c33d 4e94 ea3a 92d0 5c3d a5ad 21be
000000d0: 2822 a23d 4f7e 85bd f547 8f3d d68b 4b3d
000000e0: 771a b13d 8fc9 d0bd 06fc 59bc eec0 26bd
000000f0: df61 4fbc 28d7 3abd e321 0cbd e9c2 f7bd
00000100: 1bdd b83d 8724 02bd abf6 9cbc 0613 43bd
00000110: 5465 1abd d90d 13bd 716a 123d 528d 16bd
00000120: 7dc7 b13d 4f14 04bd d3e1 023c b195 bdbd
00000130: 36ea 963c 75ed 813b d920 943d 31d6 06bd
00000140: e39b 1ab9 952c 0fbe 7165 973c a1c4 0abd
00000150: 74f4 9d3d 2dd0 16bd d81f 0f3c adfd 5abd
00000160: a019 093e 1441 29bd ac6d 323d c7af f5bc
00000170: 2000 9dbb 6d89 82bd 5039 063d 62ad 003d
00000180: 0b56 9a3d 66ac 19bd 1f65 5dbc 88ad 353e
00000190: 01fe 75be 6ff0 9d3d 0274 aabc 4ade 81bb
000001a0: cd07 92bb 1f84 ee3d 29dc b9bd fd03 a53d
000001b0: 6358 b2bc a39e dd3c 30cb 1cbd a1be 023e
000001c0: 1df3 0bbe 5420 5f3d c9e8 d93c 2fa6 5cbd
000001d0: 41e6 a2bb 9e58 843d d293 7fbd b57b 173c
000001e0: ac9b a53d 88c2 4c3d d0a7 19bd 811d 043d
000001f0: 3099 c23b e7e1 8abc 5612 a1bc ea90 5dbb
00000200: 01e5 80bd f4ca b53d 3d5e 4cbd eae8 813d
00000210: 1029 1fbd 94aa 2d3d c580 073b 05cf fbbc
00000220: 897a 3fbd 126d 19bd f0ae 0f3b c028 0e3d
00000230: f581 9fbc e906 2e3d 4aab 0dbe 5d3b 0f3c
00000240: e62d c9bb e751 703d a76f 27bd 0111 083e
00000250: 6b8c 6fbe 2c8b 9abc c661 293c 6ff4 71bd
00000260: 4d27 213d 0d25 303e c081 66be 7802 003c
00000270: a0da 42bc de45 053c cca0 e8bc 4c2d 273d
00000280: c4ef e7bd a79f a9bd b7ee 953d df10 eb3c
00000290: 454b 913d 1494 a7bd 792c 193b ea4f 40bd
000002a0: 6f2a af3d 0b08 c03c c0ba a9ba 5896 fd3b
000002b0: cba9 10bd 3403 943b 5d6f 63bc 735f 71bd
000002c0: 1e8e 29bd 05b7 febb 3753 4dbd 4b91 da3a
000002d0: bbc3 923d 052f 3dbd 0665 ab3c e7bc 793d
000002e0: 8bfe a9bd 34a8 95bd 53de fbb9 063c 2d3a
000002f0: 187b 2b3c dbcb 143e b465 14be b840 5b3d
00000300: 8586 6abd 0e4b 3b3d dec0 06be f9b9 d23d
00000310: 130a f83d a215 2abe a0af 8cbd b8ad c8bc
00000320: ddd9 2dbe f7ea d33d 93c2 e13d e440 63bd
00000330: 7323 49bd 5634 0fbd 6e30 eabd 1d0c a33d
00000340: 8d61 ac3d 0feb 26be ad53 75bd 5f8f 28bd
00000350: 1492 3ebe 0b35 2c3d 5e9b 443d 6f17 1dbe
00000360: ccbd ecbc 3ea4 dabc e67e 0cbe 4726 733d
00000370: f0c4 763d 34a7 f7bd 3f77 b3bd 5eb6 58bc
00000380: b329 47be a734 053e da03 fd3d ea2a 54bd
00000390: bb39 4fbd 7867 093d 9ca8 41be cc73 183d
000003a0: f862 193d 1746 e0bd 8de3 04bd e7c1 f53c
000003b0: 0d56 fabd 3d26 863d 68c7 803d 76ff 4ebd
000003c0: 7469 a9bd 133a a1bb f01a 1ebe 58f2 643d
000003d0: 119b 553d 6f8f 12bd c242 50bd 31c6 73bc
000003e0: b7a7 1cbe f9d8 9f3d 1298 b23d 1b8c 79bd
000003f0: 7543 b4bc 9990 9c3c c8a2 17be 59c3 e83d

dense/bias/read__16 f4 [6]
-0.07280519 -0.05768077 -0.047535885 0.05383464 0.047242194 -0.011476729
00000000: e31a 95bd ac42 6cbd fdb4 42bd b681 5c3d
00000010: 0881 413d e408 3cbc

conv1d_2/Reshape__11 f4 [1, 72, 1]
-0.06120676 0.024692526 0.114712566 -0.040550835 -0.032655124 0.096122734 0.1069847 -0.07735135
-0.045007065 0.12852594 0.035133105 0.07370168 0.001842329 -0.07060696 0.044997517 -0.040238928
0.037864402 0.01614587 0.07911241 -0.052282907 -0.022729244 0.023372533 -0.03636298 -0.025963591
-0.059745505 -0.07020113 0.06060116 -0.0890487 -0.040878832 -0.055944264 0.08417625 -0.08154591
0.072132036 -0.03177025 -0.07799289 0.022487286 -0.005106239 -0.026848089 0.023440527 0.068567924
0.04461363 -0.033216696 -0.04851814 0.017940419 0.019619824 0.037607588 0.0125985695 -0.017579205
0.124858834 -0.06950925 -0.057419855 -0.045778062 0.0686248 -0.04545691 -0.0810595 0.10482764
-0.011220477 -0.08115963 -0.035454463 -0.04900512 -0.038477182 -0.06558648 0.07247226 0.03768409
-0.05896055 -0.08967168 -0.033209287 -0.0022246873 -0.049320303 -0.0074261883 0.04851083 0.034706738
00000000: f1b3 7abd fb47 ca3c 6cee ea3d a218 26bd
00000010: 61c1 05bd ffdb c43d cb1a db3d 626a 9ebd
00000020: 5459 38bd 4e9c 033e bbe7 0f3d e8f0 963d
00000030: 4e7a f13a 629a 90bd 514f 383d 93d1 24bd
00000040: b417 1b3d 5844 843c b005 a23d 9a26 56bd
00000050: ae32 babc c177 bf3c 59f1 14bd 99b1 d4bc
00000060: b4b7 74bd 9cc5 8fbd ec38 783d 2a5f b6bd
00000070: 9070 27bd d025 65bd 9964 ac3d 8b01 a7bd
00000080: f6b9 933d 8621 02bd bcba 9fbd 4237 b83c
00000090: 3d52 a7bb 86f0 dbbc 5906 c03c 576d 8c3d
000000a0: c8bc 363d 3b0e 08bd f5ba 46bd c9f7 923c
000000b0: c1b9 a03c 6a0a 1a3d 3b6a 4e3c 4402 90bc
000000c0: fdb5 ff3d de5a 8ebd 1531 6bbd c781 3bbd
000000d0: 298b 8c3d 0631 3abd 8602 a6bd e0af d63d
000000e0: 17d6 37bc 0537 a6bd b338 11bd 98b9 48bd
000000f0: 409a 1dbd 3452 86bd 566c 943d a25a 1a3d
00000100: 9e80 71bd c9a5 b7bd 7606 08bd 0fcc 11bb
00000110: 1604 4abd 6257 f3bb 4bb3 463d a728 0e3d

conv1d_1/Reshape__9 f4 [1, 36, 1]
-0.060078625 0.06648744 -0.0151373595 -0.07652106 -0.065458134 -0.07417528 0.043337982 -0.12318235
-0.10912298 -0.063702784 -0.057619855 0.06131582 -0.053687513 0.100595 -0.05575305 0.11534302
-0.09828955 -0.03642921 -0.02373103 0.045871865 0.07075792 -0.022834731 -0.056621864 0.10843907
0.022730412 0.0772736 -0.0003132294 -0.025767451 -0.05929101 0.086773 0.115752816 -0.037452206
-0.10588177 0.104567535 0.05260525 -0.055221245
00000000: 0115 76bd 912a 883d b002 78bc 13b7 9cbd
00000010: ea0e 86bd 36e9 97bd 2b83 313d 0747 fcbd
00000020: de7b dfbd 9b76 82bd cc02 6cbd 4c26 7b3d
00000030: 70e7 5bbd c004 ce3d 4f5d 64bd f638 ec3d
00000040: 084c c9bd cc36 15bd 9467 c2bc 23e4 3b3d
00000050: 87e9 903d e70f bbbc 54ec 67bd 4e15 de3d
00000060: 2135 ba3c 9f41 9e3d f038 a4b9 4316 d3bc
00000070: 21db 72bd 0bb6 b13d d00f ed3d 7c67 19bd
00000080: 8bd8 d8bd 8127 d63d 9a78 573d ac2f 62bd

conv1d/Reshape__7 f4 [1, 18, 1]
0.08621613 -0.12773065 0.109013245 0.1131604 0.047675822 0.100997806 -0.010304811 0.07217923
0.036044847 0.034313485 0.09267173 0.13742046 0.006672263 0.08504758 0.12600449 0.108196415
-0.041178323 -0.08197955
00000000: 1592 b03d d3cb 02be 5642 df3d a4c0 e73d
00000010: b947 433d f0d7 ce3d 83d5 28bc b4d2 933d
00000020: c3a3 133d 4c8c 0c3d adca bd3d f3b7 0c3e
00000030: 00a3 da3b 6d2d ae3d 5207 013e 1596 dd3d
00000040: 9aaa 28bd e5e4 a7bd

conv1d_2/conv1d/ExpandDims_1__10_tucker0 f4 [2, 36, 1, 1]
0.16836864 -0.09601281 -0.026335046 -0.037194166 0.16804202 0.24146016 0.06425402 -0.22822036
0.20381656 0.067047134 -0.25018924 -0.1216812 0.11476031 -0.058753196 -0.19808897 0.038918395
-0.16097446 0.09807361 0.06315721 0.06289055 0.18549863 -0.25409368 -0.0017101238 -0.074934475
0.29245645 -0.1925775 -0.33519915 -0.14776614 0.24977359 0.14848123 0.09609085 0.04624992
0.25410014 0.10689978 0.17584284 0.17085396 -0.06922698 0.086791836 0.21982317 -0.096071385
0.3586543 -0.18468651 -0.042097457 0.054936014 -0.13978279 -0.35115486 0.025291547 -0.38766983
0.2136498 0.10479205 0.0622142 0.18133798 0.022367463 0.11330674 -0.07771373 0.19071108
-0.17061743 -0.08343655 -0.016390292 -0.017656473 -0.044266645 -0.30983537 0.036712926 0.00049468887
-0.2512797 0.14225711 0.116603106 -0.14413106 0.00019097564 0.22422758 0.06492853 -0.10716023
00000000: d468 2c3e 5da2 c4bd 98bc d7bc e958 18bd
00000010: 3513 2c3e 5541 773e 9d97 833d 99b2 69be
00000020: 4ab5 503e 0250 893d ce18 80be fe33 f9bd
00000030: 7407 eb3d 31a7 70bd d6d7 4abe e568 1f3d
00000040: 7dd6 24be d1da c83d 9158 813d c3cc 803d
00000050: 5af3 3d3e 9118 82be 3c26 e0ba 3f77 99bd
00000060: dabc 953e 0933 45be 399f abbe 0250 17be
00000070: a6c4 7f3e 770b 183e 48cb c43d 8e70 3d3d
00000080: 6a19 823e 46ee da3d 2510 343e 57f4 2e3e
00000090: e0c6 8dbd ebbf b13d 5319 613e 13c1 c4bd
000000a0: 89a1 b73e 761e 3dbe 626e 2cbd 9604 613d
000000b0: 3823 0fbe 92ca b3be 3830 cf3c a97c c6be
000000c0: 03c7 5a3e 379d d63d 51d4 7e3d aab0 393e
000000d0: f83b b73c 5d0d e83d 6028 9fbd c449 433e
000000e0: 56b6 2ebe c8e0 aabd ef44 86bc 4fa4 90bc
000000f0: f150 35bd bea2 9ebe 4b60 163d 02ae 013a
00000100: bca7 80be d9ab 113e 9ccd ee3d 1897 13be
00000110: a240 4839 ea9b 653e 40f9 843d d376 dbbd

conv1d_2/conv1d/ExpandDims_1__10_tucker1 f4 [4, 2, 1, 2]
2.7277215 2.3693907 -0.047320038 0.04549948 -0.054926928 0.06704671 2.0186024 1.9008095
0.13665578 -0.13265526 0.6152221 -0.64471936 -0.5727637 0.6645197 0.108194135 -0.15488924
00000000: fd92 2e40 19a4 1740 a8d2 41bd aa5d 3a3d
00000010: 0ffb 60bd c94f 893d c830 0140 ba4d f33f
00000020: 7eef 0b3e c8d6 07be 327f 1d3f 540c 25bf
00000030: a4a0 12bf f71d 2a3f e394 dd3d 499b 1ebe

conv1d_2/conv1d/ExpandDims_1__10_tucker2 f4 [72, 4, 1, 1]
-0.0433478 0.067205325 0.011086222 -0.00819525 0.044737905 0.020374004 -0.0067948005 -0.10908879
-0.060900226 0.12378425 -0.031982746 -0.020049965 -0.03972076 -0.22724096 0.08752301 -0.009559944
-0.1323422 0.14990692 0.075332224 -0.084507 -0.008226823 -0.061640553 -0.20675899 0.10719726
0.000105571584 0.17595929 0.004429491 0.092458844 -0.1326708 -0.060508642 -0.04653245 0.0035175341
0.048360877 -0.1517949 0.022869948 -0.061770607 0.0991232 0.16490248 -0.013664415 -0.1548982
0.07444686 -0.025994733 0.17753331 0.043244123 0.12777583 -0.09362383 -0.24315017 -0.03729483
0.07038127 0.038258735 -0.10859804 0.1729776 -0.039093927 -0.22648905 0.0055544595 0.05376299
0.1758631 -0.036274232 0.12861934 0.10260378 -0.15810011 0.07923396 0.019374823 0.077094495
-0.22346383 0.023943711 -0.07358006 -0.011711133 0.15254144 -0.020576777 0.14146885 0.016472023
0.08406222 0.008768084 0.056341115 0.15284733 -0.06402291 0.14425987 -0.09067698 0.25163502
0.04258597 -0.106453344 -0.13575149 -0.0076651615 0.10726647 0.06773681 0.1720256 -0.1184636
-0.013248667 -0.045764957 0.03545294 -0.0868062 -0.05559773 -0.2515997 0.06252803 -0.108940266
-0.1586434 0.10178183 0.008956364 -0.16499649 -0.041583814 0.17717846 0.092201374 0.015196305
-0.14787039 -0.059453383 -0.014621276 0.030028688 0.029902067 -0.20500496 0.013952675 0.24207151
-0.1140962 0.16839077 0.081927806 -0.0042254683 0.15821211 0.029907884 -0.16492876 -0.26866886
0.07265421 0.17098743 -0.19868982 0.12757154 0.07994499 0.048467055 -0.09472353 -0.21386406
-0.22489375 -0.10752719 -0.17064738 -0.02424641 0.06253456 -0.11050235 -0.08405677 0.15955874
0.14143232 0.012111838 -0.16299693 -0.046716448 0.17769921 0.061799195 -0.14596002 0.10431328
-0.06150637 -0.07741351 0.20032547 0.2945619 0.0028558464 -0.1788501 -0.11416177 0.039313238
0.123148985 0.108530946 0.016775109 0.250321 0.15440388 -0.013857359 -0.0082023395 0.17404962
-0.24599776 0.049992085 -0.033045713 0.085190624 0.107945204 0.06468654 0.0963369 0.12211448
-0.06149503 -0.038391605 0.18954316 -0.082212545 0.051324576 -0.08686923 -0.1782226 -0.011030028
0.007513273 -0.02303133 0.16324326 -0.1468256 0.12238961 0.034265883 -0.08340837 0.16551131
0.25103003 0.034897055 0.0139330095 0.08448948 -0.053288992 -0.1523913 0.069590025 -0.008961197
-0.075746834 -0.0049087387 -0.05283727 0.122750536 0.13117585 0.026865644 -0.17332007 -0.1741988
-0.10593264 -0.08223912 -0.04563618 -0.07010459 0.021126905 -0.19394714 0.09244563 -0.011959764
-0.1960203 -0.007840462 -0.2762214 0.08439223 0.19808939 0.090839334 -0.006815782 0.048730627
-0.13642232 -0.16074593 0.10269855 -0.09233564 0.055018786 0.058224138 0.10410836 0.06257792
0.11170758 0.04217695 -0.1270478 -0.17346384 -0.07255857 0.13383223 -0.028459921 0.24646787
0.104532965 0.023769895 0.0932617 0.0340044 -0.038100827 -0.099798 0.06613817 0.0324004
-0.16980888 0.16706075 -0.12894318 0.017648576 -0.075151555 0.02512503 0.19094792 0.0976868
0.047093716 -0.26916945 -0.14096928 0.103302956 0.050976418 -0.035173595 0.17066865 0.059730645
00000000: 768d 31bd f2a2 893d fca2 353c 5f45 06bc
00000010: 183f 373d 62e7 a63c eba6 debb f269 dfbd
00000020: 8472 79bd 9982 fd3d 5700 03bd d33f a4bc
00000030: 3cb2 22bd dbb1 68be 443f b33d 50a1 1cbc
00000040: b784 07be 3381 193e c847 9a3d 0212 adbd
00000050: ccc9 06bc ce7a 7cbd a1b8 53be 3d8a db3d
00000060: 5066 dd38 ac2e 343e 4325 913b 105b bd3d
00000070: dbda 07be e9d7 77bd cf98 3ebd 6e86 663b
00000080: 0e16 463d 1f70 1bbe c259 bb3c 2d03 7dbd
00000090: 1b01 cb3d 32dc 283e b6e0 5fbc a29d 1ebe
000000a0: 9877 983d e8f2 d4bc 4bcb 353e c020 313d
000000b0: abd7 023e dabd bfbd 5cfc 78be 77c2 18bd
000000c0: 0e24 903d 31b5 1c3d a668 debd 0a21 313e
000000d0: f420 20bd bfec 67be 2f02 b63b 9536 5c3d
000000e0: 7515 343e 4a94 14bd cab4 033e ee21 d23d
000000f0: ffe4 21be 6a45 a23d f3b7 9e3c b8e3 9d3d
00000100: b4d3 64be 9a25 c43c 24b1 96bd 0de0 3fbc
00000110: d333 1c3e a190 a8bc 36dd 103e 56f0 863c
00000120: d028 ac3d 03a8 0f3c f1c5 663d 0384 1c3e
00000130: 721e 83bd dcb8 133e dab4 b9bd 4ed6 803e
00000140: a06e 2e3d 3604 dabd 7002 0bbe 092c fbbb
00000150: 86ae db3d 99b9 8a3d 7b27 303e 0b9d f2bd
00000160: f010 59bc 0974 3bbd 1a37 113d 73c7 b1bd
00000170: 72ba 63bd add1 80be b20e 803d 131c dfbd
00000180: 6a73 22be fe72 d03d b7bd 123c d7f4 28be
00000190: ca53 2abd 456e 353e 13d4 bc3d ecf9 783c
000001a0: 566b 17be 6485 73bd 148e 6fbc b9fe f53c
000001b0: 2ef5 f43c d2ec 51be c399 643c 98e1 773e
000001c0: 45ab e9bd a16e 2c3e c4c9 a73d cc75 8abb
000001d0: 5b02 223e 6101 f53c 16e3 28be f78e 89be
000001e0: bbcb 943d 5417 2f3e 5875 4bbe 1da2 023e
000001f0: 33ba a33d 6485 463d 69fe c1bd 2eff 5abe
00000200: 8c4a 66be 3737 dcbd 30be 2ebe 68a0 c6bc
00000210: 1f12 803d 0e4f e2bd f525 acbd 5e63 233e
00000220: a2d3 103e bb70 463c abe8 26be bf59 3fbd
00000230: c8f6 353e 2721 7d3d 8b76 15be 33a2 d53d
00000240: 1aee 7bbd f98a 9ebd 1f22 4d3e d1d0 963e
00000250: 2729 3b3b 7b24 37be a5cd e9bd eb06 213d
00000260: 8935 fc3d 7945 de3d f46b 893c 132a 803e
00000270: 0d1c 1e3e fa09 63bc 1b63 06bc 103a 323e
00000280: d6e6 7bbe 80c4 4c3d f15a 07bd 6c78 ae3d
00000290: 6012 dd3d 607a 843d 484c c53d 2817 fa3d
000002a0: 36e2 7bbd 8440 1dbd 9a17 423e 0d5f a8bd
000002b0: b839 523d 7fe8 b1bd fc7f 36be 4ab7 34bc
000002c0: e731 f63b 33ac bcbc 3e29 273e 7359 16be
000002d0: 67a7 fa3d 625a 0c3d 02d2 aabd cc7b 293e
000002e0: 0287 803e 37f0 0e3d 4747 643c d208 ad3d
000002f0: 8f45 5abd 770c 1cbe 3785 8e3d fcd1 12bc
00000300: 2821 9bbd 7cd9 a0bb e56b 58bd a264 fb3d
00000310: f652 063e 5715 dc3c d17a 31be 2c61 32be
00000320: 36f3 d8bd fc6c a8bd 01ed 3abd ff92 8fbd
00000330: 5512 ad3c 149a 46be 2254 bd3d e3f2 43bc
00000340: 8cb9 48be 4875 00bc e46c 8dbe d5d5 ac3d
00000350: f2d7 4a3e f909 ba3d ec56 dfbb c499 473d
00000360: 4bb2 0bbe 959a 24be 9e53 d23d 781a bdbd
00000370: 615b 613d 6f7c 6e3d c436 d53d da28 803d
00000380: f2c6 e43d bdc1 2c3d d218 02be 81a0 31be
00000390: 9699 94bd 510b 093e c824 e9bc 1362 7c3e
000003a0: 6115 d63d 15b9 c23c fdff be3d 3348 0b3d
000003b0: 9d0f 1cbd e562 ccbd 7373 873d 48b6 043d
000003c0: 61e2 2dbe f911 2b3e ae09 04be bf93 903c
000003d0: 0fe9 99bd 02d3 cd3c da87 433e 0410 c83d
000003e0: 57e5 403d 94d0 89be 405a 10be 8090 d33d
000003f0: a6cc 503d 3012 10bd c3c3 2e3e 1fa8 743d

conv1d_1/conv1d/ExpandDims_1__8_tucker0 f4 [2, 18, 1, 1]
0.252474 0.18166198 0.20722611 -0.17542714 0.48144045 -0.29317978 0.23495653 0.30600026
-0.21571425 0.1085909 0.059805654 -0.14448906 -0.36679816 -0.0496439 -0.09375592 -0.05604711
-0.26724812 -0.24458452 -0.59331244 -0.0013554947 0.3921479 0.124804914 -0.0628303 -0.040286135
0.04082017 0.17104112 -0.14898658 -0.28555983 0.24977812 -0.15555991 -0.11752981 0.2513598
-0.20491537 0.34742123 0.10655534 -0.027567953
00000000: 4644 813e 9905 3a3e 1533 543e 2ca3 33be
00000010: 5d7f f63e a91b 96be 7298 703e 11ac 9c3e
00000020: 32e4 5cbe e864 de3d c6f6 743d f1f4 13be
00000030: f8cc bbbe 6757 4bbd 1b03 c0bd a891 65bd
00000040: bfd4 88be 5d74 7abe 53e3 17bf dbaa b1ba
00000050: 9cc7 c83e b899 ff3d 2cad 80bd 1303 25bd
00000060: 0d33 273d 6725 2f3e f08f 18be e634 92be
00000070: d6c5 7f3e 194b 1fbe 78b3 f0bd 3bb2 803e
00000080: 56d5 51be 32e1 b13e b039 da3d 30d6 e1bc

conv1d_1/conv1d/ExpandDims_1__8_tucker1 f4 [2, 2, 1, 2]
1.4936221 1.5623277 -0.24335314 0.20251542 0.30292252 -0.3024998 -1.2611487 -1.4185547
00000000: 022f bf3f 5bfa c73f 9131 79be 3460 4f3e
00000010: a918 9b3e 41e1 9abe 526d a1bf 3393 b5bf

conv1d_1/conv1d/ExpandDims_1__8_tucker2 f4 [36, 2, 1, 1]
-0.17077738 -0.16574204 0.12729615 0.03188248 -0.06464588 -0.093489446 0.24371263 0.0017011509
0.03971158 -0.25760219 0.033460088 -0.10641032 0.07811918 0.15269083 0.024503827 0.068040155
0.07831664 -0.0050763967 0.354976 0.08523166 0.28603563 -0.2594367 0.26406687 0.06732998
-0.1515507 -0.094360195 0.036991477 -0.015018707 0.0226056 0.32075658 -0.018094841 -0.31686315
0.104920715 0.14921066 -0.1384783 0.024297735 -0.23157856 0.26702306 -0.05157667 -0.064797945
0.02496383 0.3517984 0.35772446 -0.09109306 -0.02012765 -0.11819966 0.050971903 -0.053663734
-0.30868912 -0.24823557 0.19695114 -0.11967637 -0.06315989 0.36717665 0.09116291 0.14990734
0.18109961 0.11377873 0.089470334 -0.101298526 0.10121556 -0.017005542 -0.2931614 0.13642909
0.06584244 -0.12430032 -0.003008519 -0.1306519 -0.0024749527 0.01826978 -0.2588568 -0.10066605
00000000: 44e0 2ebe 48b8 29be ec59 023e 3497 023d
00000010: 0f65 84bd 6577 bfbd ce8f 793e 27f9 de3a
00000020: 9ca8 223d 6fe4 83be 720d 093d a7ed d9bd
00000030: f3fc 9f3d fc5a 1c3e 40bc c83c a358 8b3d
00000040: 7964 a03d e757 a6bb 6abf b53e f08d ae3d
00000050: 4373 923e e3d4 84be c633 873e 4de4 893d
00000060: 1b30 1bbe eb3f c1bd 6084 173d 0611 76bc
00000070: 612f b93c 353a a43e a23b 94bc e33b a2be
00000080: ace0 d63d aeca 183e 41cd 0dbe 0b0c c73c
00000090: ee22 6dbe 3fb7 883e 0f42 53bd c9b4 84bd
000000a0: f280 cc3c eb1e b43e a927 b73e 008f babd
000000b0: bee2 a4bc aa12 f2bd eac7 503d 81ce 5bbd
000000c0: 800c 9ebe 7731 7ebe 8fad 493e e218 f5bd
000000d0: f959 81bd 94fe bb3e 9fb3 ba3d 4f81 193e
000000e0: 2d72 393e d304 e93d 393c b73d 9a75 cfbd
000000f0: 1b4a cf3d 354f 8bbc 4019 96be 11b4 0b3e
00000100: 67d8 863d 2b91 febd 932a 45bb 9dc9 05be
00000110: d132 22bb 81aa 953c e188 84be 012a cebd

conv1d/conv1d/ExpandDims_1__6_tucker0 f4 [4, 9, 1, 1]
-0.09508246 0.1567792 0.3344261 0.029345216 -0.17730063 -0.40801755 0.34299636 -0.6300855
0.3756455 -0.5256679 0.33904257 0.50383526 0.07684346 -0.16714199 -0.03201803 -0.5339556
0.13447215 -0.12967488 0.13256653 0.13952044 0.24583128 0.47984463 -0.22544207 0.21220376
0.3500842 0.53117955 0.4143803 0.20279892 -0.05121235 0.08778668 0.64506406 0.59546363
-0.013137924 -0.32632792 -0.25318033 0.08423783
00000000: 98ba c2bd ba8a 203e e639 ab3e 6165 f03c
00000010: 4c8e 35be ade7 d0be 389d af3e 494d 21bf
00000020: 9b54 c03e 2c92 06bf fd96 ad3e 59fb 003f
00000030: 1b60 9d3d 4527 2bbe 5625 03bd 50b1 08bf
00000040: 11b3 093e 7ec9 04be 85bf 073e 72de 0e3e
00000050: 32bb 7b3e 32ae f53e 49da 66be f14b 593e
00000060: 3c3e b33e 62fb 073f a829 d43e 85aa 4f3e
00000070: 0bc4 51bd 81c9 b33d eb22 253f 4e70 183f
00000080: 7240 57bc 7414 a7be daa0 81be e284 ac3d

conv1d/conv1d/ExpandDims_1__6_tucker1 f4 [4, 4, 1, 2]
-1.3794307 -0.46066555 -0.16153929 0.6463362 0.2589708 0.7607481 0.41580603 -0.17115839
0.1638824 0.7987 -0.98204494 -0.5065014 0.53527635 0.7102498 0.25299492 0.12378879
0.109598875 -0.6075692 0.30826485 -0.51116914 0.81166536 0.3858003 -0.6864632 -0.1960844
-0.3731072 -0.11357547 -0.7322696 -0.20095876 -0.44358218 -0.28723532 -0.70647043 -0.41301927
00000000: 2f91 b0bf 5bdc ebbe 8e6a 25be 4a76 253f
00000010: d297 843e 63c0 423f 87e4 d43e 2544 2fbe
00000020: cad0 273e 9a77 4c3f 4c67 7bbf 13aa 01bf
00000030: df07 093f eed2 353f 8d88 813e fa84 fd3d
00000040: 6075 e03d a889 1bbf e4d4 9d3e fbdb 02bf
00000050: 4dc9 4f3f 9e87 c53e 0dbc 2fbf 59ca 48be
00000060: e807 bfbe 429a e8bd 0576 3bbf 22c8 4dbe
00000070: 341d e3be 8210 93be 3fdb 34bf 4377 d3be

conv1d/conv1d/ExpandDims_1__6_tucker2 f4 [18, 4, 1, 1]
0.0017468474 0.296831 -0.14567858 -0.23888245 -0.12078739 0.0058998954 -0.036904767 0.6237842
0.27520576 0.22895542 0.1867692 0.19848585 -0.28949013 -0.14261883 0.14404264 -0.17963767
0.037380155 0.33199072 0.25004864 -0.09571732 -0.121064246 0.02369095 -0.24657135 0.07020162
-0.1809623 0.39684954 -0.006881743 -0.05113573 0.17462085 0.21524698 -0.41458845 0.18275641
-0.13916825 0.05506023 -0.045372315 -0.30734238 -0.050222658 0.43340275 -0.10374537 0.045731086
0.33005098 -0.3442384 0.18089387 -0.04734339 0.36076447 0.08799913 0.26533294 -0.059642866
0.06697288 -0.270994 -0.3098646 -0.071203254 -0.05673535 -0.0830557 0.47929794 -0.1445286
0.24216624 -0.106968366 -0.3683561 -0.43079296 -0.28640303 0.23980252 0.12567621 -0.27389553
-0.5383577 -0.22053045 -0.10535989 -0.008072656 0.2176965 0.097289585 -0.14920501 -0.20756459
00000000: 79f6 e43a 3cfa 973e c42c 15be 9a9d 74be
00000010: 615f f7bd e953 c13b 7429 17bd 52b0 1f3f
00000020: c5e7 8c3e 4a73 6a3e 6d40 3f3e e03f 4b3e
00000030: 0d38 94be ac0a 12be ea7f 133e f0f2 37be
00000040: ef1b 193d b0fa a93e 6006 803e 7107 c4bd
00000050: 88f0 f7bd 8613 c23c 337d 7cbe dec5 8f3d
00000060: 2e4e 39be dd2f cb3e 3f80 e1bb b373 51bd
00000070: cfcf 323e b469 5c3e f044 d4be 7f24 3b3e
00000080: 1f82 0ebe d686 613d 52d8 39bd fb5b 9dbe
00000090: 46b6 4dbd f7e6 dd3e 7478 d4bd 8550 3b3d
000000a0: 71fc a83e 0440 b0be 3e3c 393e 24eb 41bd
000000b0: 1fb6 b83e e338 b43d b8d9 873e 144c 74bd
000000c0: 1429 893d babf 8abe 93a6 9ebe 03d3 91bd
000000d0: 5463 68bd 1b19 aabd 8a66 f53e 4eff 13be
000000e0: 6dfa 773e 3b12 dbbd 2c99 bcbe e590 dcbe
000000f0: 6ba3 92be cb8e 753e 44b1 003e 093c 8cbe
00000100: cfd1 09bf bcd2 61be edc6 d7bd 2c43 04bc
00000110: d5eb 5e3e c33f c73d 33c9 18be d08b 54be
