dnn-models/squeezenet_cifar10.onnx (onnx, 303425 bytes, 22 tensors)

squeezenet/fire4/squeeze1x1/Conv2D/ReadVariableOp:0 f4 [32, 128, 1, 1]
000000 61 aa 4c 3f 17 ad 6d 3d 0f 0c 20 bf 52 c4 c6 bc
       0.7994748 0.0580264 -0.625184 -0.024263535
000010 7b 3c 43 be fd d2 55 be 25 3d 07 3d a8 72 b4 be
       -0.1906604 -0.20881267 0.033017296 -0.35243726
000020 16 2d 13 bf 35 5b 0c 3e 5a e8 e1 bd 30 17 e0 3e
       -0.5749067 0.13706668 -0.11030646 0.4376769
000030 00 c1 20 bf 98 2e 6a 3d 52 c6 29 3f 19 86 cd 3b
       -0.62794495 0.05717334 0.6631824 0.006272089
000040 f4 84 d7 bd ee 3b 2a be 3a 84 cf be 8b 40 2e 3d
       -0.10523406 -0.16624424 -0.40530568 0.04254202
000050 13 89 17 3f 3e e8 62 3f b7 c9 05 bf 0f ed 8c 3e
       0.59193534 0.88635623 -0.5226092 0.2752461
000060 74 1f e7 be c6 fe d3 3e 07 e9 ea bd c5 05 04 3e
       -0.45141184 0.41405314 -0.11470228 0.12892826
000070 ca df ea be c5 96 ce bd c7 5f 02 3f c5 46 1e 3e
       -0.45873863 -0.10087351 0.50927395 0.15456684
000080 86 f6 fa be 01 d9 93 3d 49 cc 02 bf d7 bb 26 bf
       -0.49016207 0.072191246 -0.51092964 -0.6513037
000090 89 57 18 3f 06 af da 3e 84 de a3 bf 6b 48 f9 be
       0.5950857 0.42711657 -1.2802281 -0.48688063
0000a0 fb c9 49 3e 4f ad 7e 3e f9 f0 2f be 17 fd e2 3e
       0.19705956 0.248708 -0.17181768 0.44333717
0000b0 9c cf 5a 3d 78 2c 10 bc 07 44 13 3f 2a 3b b7 3e
       0.053420648 -0.008799665 0.57525676 0.35787326
0000c0 be e1 54 3c 32 b2 80 3e 2d f4 a3 3d 00 9f 40 3f
       0.012993274 0.25135952 0.08005557 0.75242615
0000d0 d1 e5 03 3e 11 8f 9c be c4 aa 43 be db 6f 61 3f
       0.12880637 -0.305779 -0.1910811 0.880613
0000e0 71 b0 4c 3f 88 fe 4d bd c3 46 da 3e 13 2b f2 bc
       0.7995673 -0.050291568 0.42632112 -0.029561555
0000f0 b2 60 0f 3e 8e f6 80 3d ac 1f 04 bf 2f 23 ff 3e
       0.1400173 0.062970266 -0.5161083 0.4983153
000100 0c dd 41 bd f6 62 03 3e f9 3c 5f be e2 fd 74 3e
       -0.047329947 0.1283072 -0.21800603 0.23924974
000110 65 3f 55 3c 3f 06 c8 be 23 f6 25 bf 5d 5e 49 be
       0.013015603 -0.39067265 -0.648287 -0.19664903
000120 db 45 c2 bd 79 7b 81 bc 27 e1 96 3d 42 60 b9 3e
       -0.0948598 -0.015805947 0.07367163 0.3620625
000130 e8 db 66 bc e3 16 18 be f5 f2 58 3e b4 a2 91 be
       -0.014090516 -0.1485248 0.21186431 -0.28444445
000140 5e 8c 7b be c7 26 13 bd 5c c5 7f bf 83 2c a9 be
       -0.24565265 -0.035925653 -0.9991052 -0.33041772
000150 2f 4a 26 3e d2 40 94 3e 22 6a 5c be 12 be ad be
       0.16239236 0.28955704 -0.21524861 -0.33934075
000160 87 72 e4 3e 74 ca 84 3d 34 b6 e6 bc e7 e0 22 3f
       0.44618627 0.06483927 -0.028163053 0.63624424
000170 95 8d 5f be 34 38 5b be 43 db d3 be b9 d1 ee 3c
       -0.21831353 -0.21408159 -0.4137822 0.029152738
000180 6c e4 03 3f 59 56 d8 3d af 42 a8 3d c2 3c 94 be
       0.5152042 0.105633445 0.08215844 -0.28952605
000190 10 d5 cb 3d 32 0a d2 3d 76 6c 93 3d 94 38 e6 be
       0.09952748 0.10255851 0.07198422 -0.4496504
0001a0 46 41 b9 be 8b 04 43 3e f4 1b 04 3e d8 25 1e be
       -0.36182612 0.19044702 0.12901288 -0.15444124
0001b0 5d c2 97 3d a3 4a ce be 1c e1 6a 3e b9 cf 44 3e
       0.07410119 -0.40291318 0.22937435 0.19219865
0001c0 66 0f 98 be d9 10 43 be 50 95 95 be 54 8f 5a be
       -0.29699248 -0.19049396 -0.2921548 -0.21343738
0001d0 9e fe 2a be f0 54 96 be b1 14 33 bf 67 fa e8 bc
       -0.16698691 -0.29361677 -0.6995345 -0.028439714
0001e0 b3 7b 22 be 2a c6 85 3e 5e 41 1b bf d2 69 94 3d
       -0.158675 0.2612775 -0.6064662 0.07246746
0001f0 48 ee f1 3e 0e c1 2c 3e f7 d8 0e be 28 ef 27 be
       0.47252107 0.1687052 -0.13949953 -0.16399825
000200 3a 96 17 bf 69 d4 8a 3c f5 ea c9 be 1d 6a 9d 3c
       -0.592136 0.016946988 -0.3943707 0.019215638
000210 df bd 21 be 8c c2 c0 3d 65 ac 11 3d eb eb 7b 3e
       -0.15795086 0.09412107 0.0355648 0.24601714
000220 dd 5e 9e 3e 82 0a 7c 3e 04 e3 2a 3e 43 1c 09 3e
       0.3093175 0.24613383 0.16688162 0.13389687
000230 bd 94 5f bf 08 4f 71 3d 70 bc f9 3d d0 ca 82 bf
       -0.8733633 0.05891326 0.12194145 -1.0218143
000240 e6 63 68 be 88 67 52 bf 3d da 47 be 19 6d ce 3d
       -0.22694358 -0.82189226 -0.19516845 0.100794025
000250 41 66 02 bf 8f 8d c3 be 4e a6 9e be 51 28 05 bf
       -0.5093728 -0.38193938 -0.30986255 -0.5201464
000260 92 27 2a bc 81 b3 65 bc 22 e7 48 3d 58 13 54 be
       -0.010385411 -0.014019848 0.04904855 -0.20710504
000270 5c f6 f1 3c 7f 58 14 be e4 9b 63 be 89 68 43 be
       0.029536419 -0.14486884 -0.22227436 -0.19082846
000280 f9 d0 2c 3d b3 0f db be 81 13 4c bf 6b 93 01 be
       0.04219148 -0.42785415 -0.7971726 -0.12653892
000290 34 ae 9d be 6f d3 8f bd de 39 37 bf 57 d2 28 bd
       -0.3079697 -0.0702275 -0.71572673 -0.04121622
0002a0 4d 89 13 be ad 0a 70 bb 51 35 05 3e 80 f7 4c 3d
       -0.14407845 -0.0036627457 0.1300862 0.050040722
0002b0 e4 3c 1b bf c8 96 a4 3c 7e d2 07 3d b0 09 bd be
       -0.60639787 0.02009143 0.033159725 -0.36921453
0002c0 00 c7 ea be 85 0d 4d 3e b3 1f 8e 3d a1 7f 17 bf
       -0.4585495 0.20024689 0.0693964 -0.5917912
0002d0 30 63 a7 be 32 85 75 be e1 41 4e bd 0c fc 6e 3e
       -0.32692862 -0.23976591 -0.050355796 0.23338336
0002e0 be ac 1b be c2 9a f1 be 6a 1e 60 3e 49 d9 1b bd
       -0.15202615 -0.47188383 0.21886602 -0.038049016
0002f0 81 e3 1d be d3 84 34 3e d4 3f 23 bf d2 84 13 3e
       -0.15418817 0.17628793 -0.6376927 0.14406136
000300 d7 2a 12 bf e3 ff a2 3e a3 3a e8 3e 3c 9b 01 bf
       -0.5709662 0.3183585 0.45357236 -0.50627494
000310 a3 8f e1 3c 9e db b9 3d 89 f5 36 bd ae cf 8c bf
       0.027534312 0.09075092 -0.044667754 -1.1000879
000320 54 70 20 3f f1 26 50 be a8 f6 80 3e 73 21 aa 3e
       0.626714 -0.20327355 0.25188184 0.33228645
000330 0d 9c 74 bd 07 0e 76 3e a8 9d 14 be 94 70 a8 3c
       -0.059719134 0.24028789 -0.14513266 0.020561494
000340 11 ad b1 be e8 f9 5f be 77 dc 21 be b9 a7 67 3d
       -0.34702352 -0.21872675 -0.15806757 0.056556437
000350 45 61 c6 3d d5 a6 e8 be ed 07 c1 3e 4c 22 40 bd
       0.096865214 -0.45439783 0.3770136 -0.046907708
000360 03 a5 87 be d8 85 1b bd 18 b7 46 3e c7 d2 9c be
       -0.2649308 -0.03796944 0.19405782 -0.3062956
000370 46 74 0f be 1b f8 75 3e 9e cd 23 bf 1d 46 a6 3e
       -0.14009199 0.24020426 -0.6398562 0.32475367
000380 df c4 17 bf 5c 0f d9 3e 20 d4 23 3e c0 f9 05 3f
       -0.59284776 0.4239453 0.15998888 0.52334213
000390 90 75 23 bf 37 f0 0f bf 80 6b f8 bd 92 6b fc be
       -0.6385126 -0.56225914 -0.12129879 -0.4930082
0003a0 f5 14 b8 be 6d 3f 18 bf bd ab df 3d 26 28 66 be
       -0.3595349 -0.5947178 0.10921428 -0.22476253
0003b0 81 b7 b7 3e 54 a0 af be 1c e2 4a 3d 58 4c b8 3d
       0.3588219 -0.34302008 0.04953204 0.089989364
0003c0 01 af c7 3e 88 8b a5 3e 0c f5 69 3e fb 8d ea 3d
       0.39000705 0.32333016 0.22847384 0.11452862
0003d0 85 07 02 be ad cb 3b bd a6 b9 a6 3d 71 c1 ec 3e
       -0.12698181 -0.045848537 0.081408784 0.46241334
0003e0 ec cc 95 3e 4c c8 fe bc de 86 0a 3d bb 45 8f be
       0.29257905 -0.031101368 0.033820026 -0.27982888
0003f0 25 ea 9f 3c 23 6a 70 bb 35 06 e9 3c 74 47 96 be
       0.019520829 -0.0036684356 0.028445343 -0.2935139

squeezenet/fire4/squeeze1x1/BiasAdd/ReadVariableOp:0 f4 [32]
000000 24 fc 50 3e de 05 22 3e de c5 4a be fc 67 64 3d
       0.20408684 0.1582255 -0.19802043 0.05576323
000010 e2 92 53 be 03 ae fe bc ea e1 46 3e 74 c3 c8 3e
       -0.206615 -0.031088835 0.19422117 0.3921162
000020 0a 4e e8 3e 0b 94 e7 bd 0f 19 3d 3f 85 cd 25 3f
       0.4537204 -0.11307534 0.7386636 0.6476672
000030 c4 fa 01 bf 7a 44 76 be a8 91 f3 3e f5 eb 5c 3e
       -0.5077326 -0.24049559 0.47572064 0.21574385
000040 dc e0 0d 3e 07 57 ea 3e ed 18 46 3d 9c f1 fb bc
       0.13855308 0.45769522 0.048363615 -0.030754857
000050 b8 db 83 be ae 91 16 3f 50 63 2b 3d 8b f5 dd bd
       -0.2575357 0.5881604 0.04184276 -0.10837849
000060 30 aa 2b bc 71 22 b2 bd 73 fe e1 bb 04 ba f4 3e
       -0.010477588 -0.086979754 -0.006896788 0.4779817
000070 18 ff 9c bf 0e c3 cf 3e e8 08 5f 3d d4 ce 14 3e
       -1.2265348 0.40578502 0.054451853 0.14532024

squeezenet/fire4/expand3x3/Conv2D/ReadVariableOp:0 f4 [128, 32, 3, 3]
000000 2a 91 bf 3d 0c c5 b8 3d 4c 8a af 3c 5c 4a 64 bd
       0.0935386 0.09021959 0.02142825 -0.055734977
000010 c0 76 8a be 90 fa da bd 15 1a 2c bd 04 35 d7 bd
       -0.27043724 -0.10692322 -0.04201706 -0.10508159
000020 bd dd 39 be 5e 84 71 3e 70 6c 6c bd cb 39 8a 3e
       -0.18150993 0.2358565 -0.0577206 0.26997218
000030 ad a7 4d 3c ec ee a7 bd a9 21 7c be 27 d4 a4 be
       0.012552184 -0.081998676 -0.24622215 -0.3219311
000040 b3 05 a1 be 27 f2 1d be 43 a9 cf bd ca 52 16 be
       -0.3144966 -0.15424405 -0.10139706 -0.14680019
000050 ce 10 81 be 1e ed 35 bc 9b 57 90 3e 4a 72 b5 3e
       -0.25208133 -0.011103896 0.28191838 0.35438758
000060 e2 14 a3 be 22 a7 22 3e 7f 4f 89 bd 10 2a 64 3e
       -0.3185187 0.15884069 -0.06704616 0.2228167
000070 47 44 01 3d da 0b ab ba 54 42 20 bd 55 45 a9 bd
       0.031559255 -0.0013049797 -0.039125755 -0.08265177
000080 2b 61 8a bc cb d8 9d bd 8d ed bc be c4 c8 3e be
       -0.016892036 -0.077073656 -0.36899987 -0.18631274
000090 04 3f 6f 3e 4c 44 99 3e 11 da 80 be f8 b8 1f be
       0.23363882 0.2993492 -0.2516637 -0.15597904
0000a0 23 86 21 be 9e b7 33 bf 44 fe 0f be 3b 6a ac be
       -0.15773825 -0.7020205 -0.14061838 -0.33674797
0000b0 db 3d 5a be a5 1b dc 3b 7d 7e 44 3e f8 ee 64 3e
       -0.21312658 0.0067171627 0.19188876 0.22356784
0000c0 7b aa 98 3e 46 88 2c 3d fa 5c 6a 3d cc db ec be
       0.29817566 0.042122148 0.057217576 -0.46261442
0000d0 78 77 db ba 8e 00 42 3e 06 04 df be 2c 96 5a be
       -0.0016743978 0.18945524 -0.43557757 -0.21346349
0000e0 12 5c c4 be 41 85 73 be 86 39 80 bd 06 85 c3 3c
       -0.38351494 -0.23781301 -0.06260972 0.023867141
0000f0 f9 5b fe 3d f3 fd 22 be d7 7a b1 bd d9 f7 e3 bd
       0.12419886 -0.15917186 -0.08666008 -0.111312576
000100 17 ec fa 3d e4 df b0 3e 4c 13 04 bf 41 a5 b3 be
       0.12252062 0.34545815 -0.51591945 -0.35087016
000110 92 a1 a1 be ff 7e 1d bf 4c db db be 3e 0a 0f 3e
       -0.3156858 -0.61521906 -0.42940748 0.13968751
000120 82 9c f1 3d fd 21 d1 3b 18 9f b5 3d d4 89 bc be
       0.117974296 0.0063822255 0.08868235 -0.36823905
000130 57 48 c6 bd 5d 9d d6 bd 5e 71 87 bc 69 ab 16 3e
       -0.096817665 -0.104792334 -0.01653355 0.14713825
000140 b4 ec c9 be b9 d3 f7 3d be cb 06 3e 7e 7e ea 3e
       -0.39438403 0.1210093 0.13163659 0.4579963
000150 57 96 f4 bd dd c2 e3 3d da fe 7d 3d 19 63 cf be
       -0.119427375 0.111211516 0.062010624 -0.40505293
000160 34 bb 95 3c 90 95 07 be 1a 2a 19 3c bb 01 a7 bc
       0.018277742 -0.13240647 0.009348417 -0.020386567
000170 74 c6 87 ba 28 ab f3 bd 19 46 0e 3d f0 9b b1 3e
       -0.0010358826 -0.1189788 0.03473482 0.34689283
000180 9a cf 98 3d 9d 70 c3 be 93 bc 75 3e f4 5f ae be
       0.07461472 -0.38171855 0.23997717 -0.3405758
000190 87 9d 93 be e2 28 df be 29 6a 55 3c 19 d3 c5 be
       -0.2883112 -0.4358588 0.013025799 -0.38637617
0001a0 66 20 8a bc 16 d8 10 bd b4 80 f3 be b1 50 82 be
       -0.016861152 -0.035362326 -0.4755913 -0.25452188
0001b0 0a f2 02 3e f3 d5 a5 be a0 8b f1 be 0b 28 81 bd
       0.12787643 -0.32389793 -0.47176838 -0.06306466
0001c0 a6 ba 1e bd 6e 71 2e 3e 81 03 a5 be 0a c6 02 3e
       -0.03875222 0.17035457 -0.32229236 0.12770858
0001d0 2f 7c df bd 7a 34 25 3d 9d 10 95 bd 23 b6 e7 bc
       -0.10912358 0.04033325 -0.07278559 -0.028285092
0001e0 70 6e 33 3e f9 63 86 3e bf 75 98 bd e0 b5 a5 3d
       0.17522597 0.26248148 -0.07444333 0.080913305
0001f0 e7 d2 07 bd 8d dd 21 3e 7f 40 1e be cc 7b cb bd
       -0.033160117 0.15807171 -0.15454291 -0.09935722
000200 29 4c e7 bc d7 b0 43 3c 1e e7 cd be e4 33 4e bf
       -0.028234558 0.011944017 -0.4021539 -0.8054793
000210 b0 d8 c5 be 45 cb 40 bc 7a d1 81 be 47 15 15 3e
       -0.38641882 -0.011767213 -0.2535513 0.14558898
000220 72 de 9c 3e 86 9c 51 3e f8 d5 94 3d 66 58 9f 3d
       0.30638462 0.20469865 0.07267374 0.077805325
000230 0b 6e 77 bc 55 fc 87 be 57 8b 11 bf cb 37 af be
       -0.01510192 -0.26559702 -0.5685324 -0.34222254
000240 6a 8b a4 3d 9d 8f 0b 3e 38 e3 82 3d 91 8a eb be
       0.080344036 0.13629003 0.06390995 -0.46004155
000250 30 e3 a8 be 9b c4 a4 be c1 36 a8 bc 44 f9 b5 be
       -0.3298583 -0.32181248 -0.020533921 -0.35541737
000260 fd 8a a4 be 1a 3a cc 3e d8 6f 8f 3e d6 ef 7c 3d
       -0.3213729 0.39888078 0.28015018 0.061752163
000270 24 8a 6a 3e a3 dd 3a 3e 29 42 c3 be 5d f6 a1 bd
       0.22904259 0.1824861 -0.38136414 -0.07908318
000280 4d 10 48 be 2e 94 1b be 1d 6c 1f bf 1a 9d 02 be
       -0.19537468 -0.15193245 -0.6227434 -0.12755242
000290 00 45 ae be 63 4d bc be 64 c7 66 be b5 bc eb bd
       -0.34037018 -0.3677779 -0.22536999 -0.115106024
0002a0 94 ba 07 bf b8 3a c6 be 52 c3 4a 3d 47 e1 94 3e
       -0.5301907 -0.38716674 0.04950268 0.29078123
0002b0 46 8c b5 3e ed 68 58 3e c4 a2 27 be 71 87 5a be
       0.35458583 0.21133776 -0.16370684 -0.2134073
0002c0 3e dc 07 3e b2 dd 0f bd b2 df 26 3d 1c 3b 40 bd
       0.1326761 -0.035123535 0.040740676 -0.04693137
0002d0 a6 05 21 be fc 95 8f 3c fb 90 ea be 2b 43 63 be
       -0.15724811 0.017527573 -0.45813736 -0.22193591
0002e0 1f 07 85 bc f0 00 a7 bc 12 e3 39 bf 7d d6 50 bd
       -0.016238747 -0.02038619 -0.72612107 -0.050985802
0002f0 9e 40 21 be 3b 93 5e be c4 e1 12 3c a6 b6 1d be
       -0.15747306 -0.21735851 0.0089649595 -0.15401706
000300 21 89 01 3e 3e cb 8d 3e f1 80 e2 3e ba ae 3a be
       0.12649967 0.27694124 0.44239 -0.18230715
000310 1a 34 01 be 4a 3a dc be 29 af 92 be 5d 0a 82 3d
       -0.12617531 -0.4301322 -0.28649262 0.06349633
000320 b5 e5 2d be 5e f2 97 be 53 13 e6 bd c9 ab 16 bf
       -0.16982158 -0.296771 -0.112341546 -0.58855873
000330 d2 a5 17 be c0 02 bc 3d 60 ee 45 3d 3f f2 57 be
       -0.14809349 0.09180212 0.048323035 -0.21088503
000340 df 7a 8d be 24 8f 71 be 7a da cc 3c 11 71 8a 3d
       -0.27632806 -0.2358976 0.025006521 0.06759847
000350 c6 43 d2 bd ad c9 84 be a6 14 d8 3c 09 b7 91 3e
       -0.10266833 -0.25935116 0.026377033 0.28459957
000360 dd eb 18 bd 44 c0 bf bc 4b b2 af bd b8 0a 8b bc
       -0.03733431 -0.02340711 -0.085789286 -0.016972885
000370 ac bb e5 3c 6d 50 fc bd 0c 66 81 be 81 2c c8 be
       0.02804359 -0.123200275 -0.25273168 -0.39096454
000380 6a 21 12 bf 92 2c 83 bb 47 c8 14 3e a5 90 75 3e
       -0.57082236 -0.004003116 0.14529525 0.23980959
000390 d9 e5 ca 3d 30 4a 75 3e a9 49 af 3e f0 c9 21 bf
       0.09907121 0.23954082 0.34235886 -0.6319876
0003a0 bd 11 14 3e 1a 7a 70 bd c4 8d 07 bf 3a 05 ac bd
       0.14459892 -0.058710195 -0.5295069 -0.083994344
0003b0 eb 54 4e be f2 91 6b 3e 1c 03 a2 bc 49 7c 2c 3e
       -0.20149581 0.23004892 -0.019776873 0.16844286
0003c0 33 9a 53 be 2a 27 1d bf ab a3 b5 be d7 66 b8 be
       -0.20664291 -0.61387885 -0.3547643 -0.3601596
0003d0 5e 51 f3 bd 92 22 c3 bd 02 9d e7 bd 2f 33 3d be
       -0.11880754 -0.09528078 -0.11309244 -0.18476556
0003e0 07 29 04 be 7a b5 f6 be b7 ca 90 3d 0c 27 af bc
       -0.12906276 -0.4818533 0.07069915 -0.021380924
0003f0 ed 8f 8c bd b5 b8 17 3e 3f fc 17 be 76 c6 07 bf
       -0.06863389 0.14816554 -0.14842318 -0.530372

squeezenet/fire4/expand3x3/BiasAdd/ReadVariableOp:0 f4 [128]
000000 b4 54 e9 3d 63 f4 78 be 36 3d d9 bd 16 6b 9a 3e
       0.11393109 -0.24311976 -0.10607378 0.30159825
000010 26 dc c2 3d 1a 05 aa bd d8 47 07 be 93 e2 e8 bd
       0.09514646 -0.08301754 -0.13211 -0.113713406
000020 fd f1 e9 bd ac f0 13 be 3b 83 bb bd 6b 0f ae 3d
       -0.11423109 -0.14447278 -0.091558896 0.084990345
000030 20 44 15 bf 40 b7 2a 3e a6 ac 9d be aa 1c be 3c
       -0.58307076 0.16671467 -0.30795783 0.023207027
000040 fa 7b 03 be 99 07 9b bc 10 e3 df bd 0b 58 4a be
       -0.12840262 -0.018924521 -0.109319806 -0.19760148
000050 e3 8f 0a be a3 49 e3 bd 1f ae 11 3b d5 60 69 3e
       -0.13531451 -0.110980295 0.0022229028 0.22790845
000060 72 e9 8b be 79 e6 dd 3d c4 2e fa bd b3 a5 e7 3d
       -0.27326542 0.10834975 -0.12215951 0.113109015
000070 58 60 c1 3d 9f ab aa 3d 2c c5 92 bd f3 ac 3b 3e
       0.09442204 0.083335154 -0.07166514 0.18327694
000080 59 a8 8b 3d 1a 58 31 be 0f aa 2a 3e 7e 6d c0 3c
       0.06819219 -0.17318764 0.16666435 0.02348971
000090 21 21 28 be fb 63 fb bc 8a 56 9a 3e 5b b1 12 3e
       -0.16418888 -0.030687323 0.3014415 0.14325468
0000a0 3b c4 1a 3e 9a 97 37 3e fc 1a 24 3e eb 61 77 be
       0.15113918 0.17928925 0.16025919 -0.24158446
0000b0 5c dd 03 3e ba f2 b2 bc d9 8f 94 be e8 03 00 3e
       0.1287741 -0.021844257 -0.29015997 0.1250149
0000c0 aa 7e c4 3d c0 f1 78 3d 29 d5 47 be da 5e c9 bd
       0.09594472 0.060777426 -0.19514908 -0.098325446
0000d0 03 f5 4e 3e b9 6e f6 3b df b1 07 3e bd d2 12 be
       0.20210652 0.0075205234 0.13251446 -0.14338203
0000e0 1e 1b 09 3e d0 de ca 3c a9 ea 81 3d 2b 34 73 be
       0.1338925 0.024764448 0.06343586 -0.23750369
0000f0 bc e0 a0 bd 8b 64 69 3e 63 bc 43 be 99 9c 11 3e
       -0.07855365 0.2279226 -0.19114833 0.14219894
000100 9e a8 2a 3e 2e 46 b7 3c d6 f4 44 be 77 35 b2 3d
       0.16665885 0.022372331 -0.19234022 0.08701604
000110 38 4a a0 3c 2f 53 fe 3d 0d fe df bd 66 14 80 be
       0.01956664 0.1241821 -0.10937128 -0.25015563
000120 be 68 42 3d e8 78 c4 3e 8e a8 b1 3e 78 be af bc
       0.04746317 0.38373494 0.3469891 -0.021453127
000130 10 ee 50 be dd 02 6b 3d 49 41 0c 3e fb 03 21 3f
       -0.20403314 0.057375778 0.1369678 0.628967
000140 8d 7c 09 be 20 53 0f be 6b 8a b9 3e 47 82 99 3d
       -0.13426419 -0.13996553 0.36238417 0.074955516
000150 21 4a 07 3f 4f 80 db bd df 78 c5 3d 2d c5 13 be
       0.52847487 -0.10717832 0.09642195 -0.14430685
000160 62 46 c0 bd d5 88 18 be 45 9e 8f 3c ae cc c2 bd
       -0.093884245 -0.14895947 0.017531523 -0.09511696
000170 cb d7 55 3e 42 d9 8d 3e 0b 41 82 bd dd c8 fc 3e
       0.208831 0.27704817 -0.06360062 0.49371997
000180 e5 68 05 be 89 2f dc bd a7 d8 dc 3d e8 5c f4 ba
       -0.13028295 -0.10751254 0.10783511 -0.0018643411
000190 51 5c 83 3e c0 28 3a be e3 4a 69 3e dd a1 06 3f
       0.2565637 -0.18179607 0.22782473 0.52590734
0001a0 3c 5e d9 3e 60 78 7b 3e c5 8a 94 3c 65 0c 87 3e
       0.42454708 0.24557638 0.018132577 0.26376644
0001b0 43 c8 3c bc 08 94 0d 3d 9d 3c a4 bd c3 59 bf bd
       -0.0115223555 0.034565 -0.080193736 -0.093432926
0001c0 18 12 b9 3b 28 2f e5 3e 66 50 86 bd 0e 89 fc be
       0.005647909 0.4476254 -0.065583035 -0.49323314
0001d0 5c 47 01 bd 87 67 ce 3d b7 2e fb 3e b7 ad 3d 3e
       -0.031562194 0.1007834 0.49059078 0.18523298
0001e0 55 b2 cb 3d 4c 78 e8 bd d3 70 63 be 43 91 ab be
       0.099461235 -0.1135107 -0.22211008 -0.33509263
0001f0 50 66 e5 bd 40 82 de be d4 b1 b0 3e 20 63 39 3e
       -0.11201155 -0.43458748 0.34510672 0.1810422

squeezenet/fire4/expand1x1/Conv2D/ReadVariableOp:0 f4 [128, 32, 1, 1]
000000 b5 c7 1f be 1a ec 9e be 7e e6 07 bf 9e cb 6b bf
       -0.15603526 -0.31039506 -0.5308608 -0.9210757
000010 be e7 c0 bd 73 85 73 3e 53 77 9e 3b e9 25 a9 be
       -0.09419201 0.23781376 0.004836002 -0.33036736
000020 e0 02 5d bf 31 a7 80 3e c2 0d 57 be b2 65 fb be
       -0.8633251 0.25127557 -0.21001342 -0.49101025
000030 16 38 91 3d ed 19 2d bf 68 f9 ca bd da 37 1f bf
       0.07090776 -0.67617685 -0.09910852 -0.621946
000040 c8 ac d7 3c bb 36 5c bf f2 29 38 3e 23 69 de bc
       0.026327506 -0.8602101 0.17984751 -0.027149742
000050 41 39 d0 be 22 9e 5b bf 8b 4d de be c8 b4 36 bf
       -0.4066868 -0.85788167 -0.43418536 -0.713696
000060 78 12 b8 be eb 0e 39 3e 7b 90 b7 bd ef 45 d8 3e
       -0.3595159 0.18072097 -0.08963104 0.42240855
000070 35 bf 89 3e df 5b 49 3e 6b 87 3b bf 13 a4 da 3e
       0.26903692 0.19663952 -0.73253506 0.42703304
000080 ac 38 6f be 18 2e a2 be 6e 83 c1 bd 00 71 d3 be
       -0.23361462 -0.31675792 -0.09448896 -0.4129715
000090 a9 28 41 be c8 24 ad 3d 62 87 49 be ac 9a 98 be
       -0.18863167 0.08454281 -0.1968055 -0.29805505
0000a0 24 98 5d be fb 63 7d bc 30 d8 b8 be fa 79 da be
       -0.21640068 -0.015465732 -0.36102438 -0.42671186
0000b0 ee 1c a2 3e b0 13 d0 3e 61 1c 0b be 22 7c 70 be
       0.31662697 0.4064002 -0.13585044 -0.23484853
0000c0 45 a0 28 bf 6b d3 6f be ee 8c dc be 0f 12 87 bc
       -0.6586955 -0.23420493 -0.4307627 -0.016488103
0000d0 61 08 df be a4 34 b4 be 2d d7 cc 3e 77 ef 34 3e
       -0.4356108 -0.35196412 0.40007916 0.17669474
0000e0 fe b1 cf be 11 2e ce bd f7 c4 8f 3c 4b 31 24 bf
       -0.40565485 -0.1006738 0.017549975 -0.64137715
0000f0 7a 0a 16 be 67 36 24 bf 7f 5a c1 be af 37 4d bf
       -0.14652434 -0.6414551 -0.37764356 -0.8016309
000100 00 fc 29 be fc 98 ab be e0 b5 8e 3e 3d c8 85 bf
       -0.16600037 -0.33515155 0.27873135 -1.0451733
000110 76 67 48 bf d9 94 45 3e fc 69 0e 3e 8e d2 8c 3e
       -0.7828287 0.19295062 0.13907617 0.2750439
000120 88 2d 9a be 9e 37 60 be 42 22 a9 bd 5c 2f c9 be
       -0.30112863 -0.21896216 -0.08258487 -0.39293945
000130 da 7b ec bd 00 e1 47 3e 32 e0 0d be f2 8c fa be
       -0.1154706 0.19519424 -0.13855055 -0.48935658
000140 4d 56 00 3e b2 58 54 bd 4c 64 3f 3d 88 e7 06 3e
       0.12532921 -0.0518424 0.04672651 0.1317426
000150 f5 aa 53 be 79 67 fe 3d 7d d5 22 bf 80 d1 e5 bd
       -0.20670684 0.124220796 -0.6360701 -0.112215996
000160 e7 20 f3 be 49 3b 28 3e d3 c8 ef 3d aa d9 8d 3d
       -0.4748604 0.16428865 0.11708226 0.06926282
000170 bc d1 1a 3e 60 e0 cd be f0 0c 82 3e 7b eb 79 3e
       0.1511907 -0.40210247 0.25400496 0.24406235
000180 ef 97 ec be 21 e4 fd be 04 2b ac 3e b0 da 87 bc
       -0.46209666 -0.4958811 0.33626568 -0.01658377
000190 a6 17 09 be d5 21 97 be e7 cb 17 3e a7 e2 8a 3e
       -0.13387927 -0.29518 0.14823876 0.27126047
0001a0 f7 81 5f 3e f7 ce f4 be f9 04 f2 bd df 37 b2 3c
       0.21826921 -0.47814152 -0.11817355 0.021755157
0001b0 9a 56 d7 3c b3 56 e9 3e de 11 85 bd 8b e8 ed be
       0.026286412 0.4557396 -0.064975485 -0.4646648
0001c0 0a 5b 33 3e 88 c0 f8 3e c1 c0 8d be 14 04 32 3e
       0.17515197 0.4858439 -0.27686122 0.17384368
0001d0 00 7b 1c bf e7 e4 92 be 0e a0 02 bd c8 39 0c bf
       -0.61125183 -0.28690264 -0.03189092 -0.5477567
0001e0 49 74 00 3e af 37 e9 be f9 50 88 be d6 c8 39 bf
       0.1254436 -0.45550296 -0.26624277 -0.72572076
0001f0 47 1e 5f bd d2 d4 8d bd 2e 5e a7 bd 1e 6f 57 bf
       -0.054472234 -0.06925358 -0.0817226 -0.84153926
000200 96 9d f7 be 7b 2d 89 bf 99 7f 92 3c de 35 7a 3d
       -0.48362416 -1.0717005 0.017883109 0.061086528
000210 4e 51 5d 3d 93 bd 91 3d b3 2c 70 bf 8b 77 d7 bd
       0.054032616 0.071162365 -0.93818206 -0.10520848
000220 9f 3f 30 3f 24 8d 78 be 4b 9f 9f 3e cc 80 9a be
       0.6884708 -0.24272591 0.31176218 -0.3017639
000230 a9 81 f3 bd d0 98 1e be fa 49 9c 3d e3 f9 07 3e
       -0.11889965 -0.15487981 0.076312974 0.13278918
000240 1e ca d7 be d7 cc b8 3d 74 56 f6 be f9 67 00 3e
       -0.4214639 0.09023445 -0.48112833 0.12539662
000250 9c 18 65 3e 18 65 17 3e db 92 80 bd 3b e4 0f bf
       0.22372669 0.14784658 -0.062780105 -0.5620763
000260 64 6e 07 3d 6c 6d 29 bf 49 e7 d7 bd 18 2c 46 be
       0.03306426 -0.6618259 -0.10542161 -0.19352758
000270 33 c4 c3 bd f5 46 b6 bd f5 18 a5 3c 24 4a 95 3b
       -0.095589064 -0.08900253 0.020153502 0.0045559574
000280 a6 40 a5 3e 1a 20 87 be ab ef 45 be 7f 7b 0f be
       0.32275885 -0.2639168 -0.19329707 -0.14011954
000290 58 72 40 bd d0 4d 5d bf 0d 0f 99 3d df a5 c7 be
       -0.046984047 -0.8644686 0.07473574 -0.38993737
0002a0 ea 17 06 3e 20 e6 c8 be f4 95 d3 be d5 80 7e be
       0.1309506 -0.3923807 -0.41325343 -0.24853833
0002b0 12 59 51 3e d3 86 9a 3e 49 81 05 bd ad 30 a0 3e
       0.20444134 0.30180988 -0.032594 0.31287137
0002c0 3d 6e 82 bb b5 e9 82 be 2e ac 12 3e 59 6b 55 be
       -0.0039804266 -0.2556893 0.14323494 -0.20841731
0002d0 ba 98 4a be de 3e f3 bd cb c2 ed be 05 eb f5 bd
       -0.19784823 -0.11877225 -0.46437678 -0.12007717
0002e0 c8 f1 9d 3d ea 47 ac 3e 29 fa 15 bf a8 12 2c 3e
       0.07712132 0.33648616 -0.5858484 0.16803992
0002f0 30 3f 1b be 0d 78 39 3d 2f fa 0c be e0 09 aa 3e
       -0.15160823 0.045280505 -0.13767312 0.3321066
000300 ab 15 64 be 69 d7 8e be 0a 0f 06 3e c8 dd 4e 3d
       -0.2227389 -0.2789872 0.13091674 0.050504476
000310 2f 75 a3 be 0a ad f9 be 3c 40 b2 3e ae f1 a2 3d
       -0.3192534 -0.4876483 0.34814632 0.07956253
000320 62 59 d2 3e 07 2a fa be 90 cf 2c 3e 50 97 34 3e
       0.4108382 -0.4886019 0.16876054 0.17635846
000330 1e 80 11 bf d7 14 3f 3e f3 8a aa 3e ab 67 95 be
       -0.56836116 0.18660294 0.33309135 -0.29180655
000340 6e 60 f9 3d c4 ca 1c be bc 16 74 be 4a 46 bc be
       0.12176596 -0.15311724 -0.23836797 -0.36772376
000350 08 8f aa 3b cb d0 c7 3d d3 f2 a2 be f4 5f e2 3d
       0.005205039 0.09756621 -0.31825885 0.11053458
000360 c3 a1 0e be 68 b4 e8 ba ae e4 4f 3e 63 57 91 be
       -0.13928895 -0.001775396 0.20302078 -0.28386983
000370 f0 a1 bf 3e 84 7a 95 3d 92 fa 19 3e 40 1b 15 bb
       0.37428236 0.072987586 0.15036991 -0.0022751838
000380 29 ff 8e bd 8a 6e ee be be 3f 09 3e 7c 82 1d 3e
       -0.06982262 -0.4656871 0.13403222 0.15381807
000390 65 55 4b bf c1 d1 1e be 7d 64 3b bf 0c 4f bc be
       -0.79427177 -0.15509702 -0.7320021 -0.36779058
0003a0 65 3d d6 3c 21 76 24 be bb 0a 12 3e 38 3a 8b be
       0.026152322 -0.16060688 0.14261906 -0.27192855
0003b0 7f 40 9c be 92 c4 5d bf 3e 4c da bd a2 c6 71 be
       -0.30517957 -0.8662807 -0.10659073 -0.23610929
0003c0 20 e5 fc 3d ee 98 c2 be 10 c9 d4 bd 2a 8a 80 bf
       0.123483896 -0.380073 -0.10389912 -1.0042164
0003d0 f3 dd c8 be 84 04 ad be c9 f6 1a 3c f7 e1 8a 3e
       -0.39231834 -0.33792508 0.009458252 0.27125522
0003e0 97 2c 21 3f 0a 66 09 be 98 89 85 bd 54 ce 98 be
       0.62958664 -0.13417831 -0.065203846 -0.29844916
0003f0 d6 0e a3 be 2f c1 6a 3d 74 81 d8 be ef f0 c1 3e
       -0.31847256 0.05731314 -0.42286265 0.3787913

squeezenet/fire4/expand1x1/BiasAdd/ReadVariableOp:0 f4 [128]
000000 10 c2 c7 be c9 7d ca be 6c d6 94 bc b9 7f cd bc
       -0.39015245 -0.3954909 -0.01816865 -0.025085317
000010 4a 34 ec 3e 4b e1 d2 bd e6 b2 c2 3e 3a 70 99 be
       0.46133643 -0.102968775 0.38027114 -0.29968435
000020 4d 84 8e 3e 76 a9 5b be 7d 92 83 bd 64 0f 81 3e
       0.27835312 -0.21451363 -0.06424425 0.25207055
000030 6d 07 19 bf 97 c3 ca be a9 54 7f bd 54 3f 19 3e
       -0.59776956 -0.39602348 -0.062336598 0.14965564
000040 31 a8 26 be 5a ca 00 3e b0 63 85 3e b6 6e c9 3d
       -0.16275097 0.12577191 0.26052618 0.098355696
000050 7f 0b 23 3e 8b 53 09 bf 44 83 d9 be b7 75 47 bf
       0.15922354 -0.536431 -0.4248296 -0.77913994
000060 ec 38 fb be a4 2b 76 3e 14 fc 01 3d e1 53 de 3d
       -0.49066865 0.24040085 0.03173454 0.108558424
000070 0b 64 52 3d af 18 6a 3e 47 93 50 3d 6d e2 f8 bd
       0.05136494 0.22860979 0.050921705 -0.12152562
000080 bc eb 2d 3e 9d 42 92 bd 0e 2d 82 be 2c 26 83 3e
       0.16984457 -0.07141612 -0.25425 0.2561506
000090 80 37 be 3d 9e bb 5c be fb f5 68 be 85 4d e2 be
       0.092879295 -0.21555945 -0.22750084 -0.44199768
0000a0 fc 44 89 be d5 ea 71 be 0a 73 0e 3e 34 de 51 be
       -0.26810443 -0.23624738 0.13911071 -0.2049492
0000b0 8c 72 85 be 99 7b 94 3e 4a 71 5f be dc 29 cc 3e
       -0.26063955 0.29000548 -0.2182056 0.39875686
0000c0 86 2c 73 be e8 40 0d bf e1 5e b0 bd 73 39 36 3e
       -0.23747453 -0.55177164 -0.08611847 0.17795353
0000d0 e9 00 8f be b0 98 18 bf d0 61 8e 3e 70 d8 82 bd
       -0.27930382 -0.5960798 0.27809 -0.063889384
0000e0 75 97 c4 be 63 b4 52 3e 47 31 05 3e 0b ce d7 be
       -0.38396803 0.20576625 0.13007079 -0.42149386
0000f0 35 b2 9a bd 6a 8b c4 3d 18 ad 67 bb a6 7d 87 3e
       -0.075535215 0.095969036 -0.0035350975 0.2646305
000100 fd 08 bd bd 8e d8 a6 be cb 8b c5 be e6 16 99 3d
       -0.0923023 -0.32587093 -0.38583216 0.07475071
000110 56 30 8e 3d 57 8e e2 bd 29 73 ea 3d c7 6d 04 3e
       0.06942813 -0.110623054 0.11447746 0.12932502
000120 2f b3 5f 3d c0 bc 0b 3e 38 28 bf bd 1b ad 0f be
       0.054614242 0.13646221 -0.09333843 -0.14030878
000130 40 06 16 bf fd f9 8a bd 0e af 81 be a0 46 d6 bd
       -0.58603287 -0.06785963 -0.2532887 -0.104626894
000140 e8 c1 6d 3e 3b 53 5c be 9e 49 ab 3e af f7 f2 3c
       0.232185 -0.21516125 0.33454603 0.02965912
000150 4f 91 29 3d 1a cb 0f be f9 ba c0 be e7 e5 8d bd
       0.041398343 -0.14042321 -0.3764265 -0.06928616
000160 33 1e 55 bd 59 47 3b be a4 95 f4 bd 62 36 d2 be
       -0.052030753 -0.18288936 -0.11942604 -0.41057116
000170 98 40 5b be 77 6d 88 3d a2 ed 8f 3e 9c 0b 5b 3e
       -0.2141136 0.06661504 0.28110987 0.21391147
000180 cc f8 d9 3d aa 8c b5 be 43 a6 b8 be af d3 80 be
       0.10643157 -0.3545888 -0.36064348 -0.25161502
000190 94 cf 83 bd 6d 1e b2 bd d9 c4 21 be 69 b4 4c be
       -0.06436077 -0.086972095 -0.15797748 -0.19990696
0001a0 32 9b c1 bd a2 ab db bb 1c 80 8c be 48 56 ee 3c
       -0.09453429 -0.00670381 -0.2744149 0.029093876
0001b0 ef b8 c4 be 77 11 50 be ac 54 b0 be 2e b5 8e bd
       -0.38422343 -0.20319162 -0.344396 -0.06968151
0001c0 86 47 0d 3f 13 42 e4 3c 09 4d 89 be 3b 63 86 3e
       0.5518726 0.027863538 -0.26816586 0.26247582
0001d0 34 39 1e be d7 76 e8 3e 19 e1 cb be 2c 5e a3 3e
       -0.15451509 0.45403168 -0.39820173 0.31907785
0001e0 7c fb 0e 3e b2 3c 7a be 29 27 13 bd cf af e4 be
       0.13963121 -0.24437216 -0.035926018 -0.4466538
0001f0 78 dc e0 3e ed 1a d0 be de 54 cb be b6 31 8c 3d
       0.43918204 -0.40645543 -0.39713186 0.06845419

squeezenet/fire3/squeeze1x1/Conv2D/ReadVariableOp:0 f4 [16, 128, 1, 1]
000000 b5 38 24 be ea 6b c2 3e 60 e6 e1 be 28 89 b9 be
       -0.16037257 0.37972957 -0.44121075 -0.36237454
000010 5d 94 bf be e3 14 7a 3d 23 a9 e5 3d 78 89 32 3e
       -0.3741788 0.061055075 0.11213901 0.17435253
000020 2a 46 54 be 0b c0 05 be 4b ad b9 3d 65 97 1f bf
       -0.2072989 -0.1306154 0.09066256 -0.62340385
000030 eb 3d 7d 3d 3c 30 0e bf 5c fc 13 3d 65 94 bf 3e
       0.061826628 -0.5554235 0.03612934 0.37417904
000040 f9 5d c3 3c 5f fd a6 3d e6 9b 03 bf 66 50 f5 3c
       0.02384852 0.081537955 -0.5140976 0.029945564
000050 b7 fa 8b be 74 9a ea 3d c2 67 23 3e 4a 1b bb bd
       -0.27339718 0.11455241 0.15957549 -0.09136064
000060 ff 3b e6 3d fb 26 dd 3e c3 4c 97 3c b3 02 3d be
       0.11241912 0.43193802 0.01846922 -0.18458061
000070 4e 01 d4 3d 8c f9 d8 3d b4 60 f1 be b7 3d 48 be
       0.10351811 0.10594472 -0.4714409 -0.19554792
000080 3b fd 82 bd 6f 69 a5 bd 07 25 90 3e ca da 5d be
       -0.06395956 -0.080767505 0.2815325 -0.21665493
000090 6e b1 97 bb c7 8c d7 3d 48 86 14 be 9c c7 13 3e
       -0.0046293056 0.10524898 -0.14504349 0.14431614
0000a0 24 dd 1a 3e 24 6a d6 3b ab 3f 8e 3e 09 b7 71 3d
       0.15123421 0.0065434147 0.2778295 0.059012447
0000b0 56 3f 1a bb 62 4c 04 3e 93 f1 c5 3d 40 0e fd bd
       -0.0023536286 0.12919763 0.09665217 -0.123562336
0000c0 ae 84 8f 3e 9a 81 a1 3d ae d1 01 bf 0e 70 45 3e
       0.28030914 0.07886048 -0.5071057 0.19281027
0000d0 35 63 be 3e 90 bb 44 be 5f 07 37 be 77 6a 95 bd
       0.37185064 -0.19212174 -0.17873906 -0.07295697
0000e0 f5 bf 9c 3c 1e ba 3c bd 9d fd ee bc e0 2f 20 3e
       0.019134501 -0.046075933 -0.029173667 0.15643263
0000f0 fc 0c 08 3e 75 53 47 bf d1 9e 8b 3d 1e 33 43 bf
       0.13286203 -0.7786172 0.06817401 -0.76249874
000100 23 bd 15 ba 29 eb 1a be a1 dd dc bd 28 90 d4 bb
       -0.00057120825 -0.15128769 -0.1078446 -0.0064869113
000110 83 96 ac 3e 69 dc 05 3f f5 85 82 bd 8e 8c 21 be
       0.3370858 0.52289444 -0.063732065 -0.15776274
000120 87 d2 ee 3d 85 1d 84 3e d8 b8 df 3d f2 71 a1 bd
       0.11661249 0.25803772 0.10923928 -0.078830615
000130 f5 0e 8e 3e 99 3f e1 bb 15 30 33 3d 26 df 14 3e
       0.27745786 -0.0068740365 0.043747026 0.1453825
000140 a6 18 87 bc 86 a5 b7 bd 07 d1 93 3c c5 65 69 bd
       -0.016491245 -0.08967118 0.018044008 -0.05698182
000150 b9 00 dc be 69 af 46 be e0 15 2e 3d d7 b2 4d 3f
       -0.429693 -0.19402851 0.04250133 0.8035101
000160 48 e4 2a 3e 53 a9 75 be f5 24 ab 3e f6 7f 52 3d
       0.16688645 -0.23990373 0.33426633 0.051391564
000170 b1 30 27 3e 20 a7 2e 3d 25 da 5e 3d 17 1d 07 bf
       0.16327168 0.04263985 0.054407258 -0.5277876
000180 5c 65 c5 bd c2 b7 9a 3e 69 6a 7e 3e 5b 7d 9d bd
       -0.096384734 0.3021832 0.2484528 -0.07689925
000190 5b ce ba be f7 55 9d 3d 37 80 e3 bc 0c 23 ba be
       -0.36485562 0.07682412 -0.027771099 -0.36354864
0001a0 ae 9d 1f bd d4 c3 fd be be 3c a7 bd 42 ff 08 3f
       -0.038968734 -0.49563468 -0.081658825 0.5351449
0001b0 df 74 8b bd 49 95 e9 3d 72 57 a3 3e b8 ab 9d 3d
       -0.06809401 0.11405427 0.31902653 0.076987684
0001c0 66 28 23 3f 71 05 9d bb 72 5b bd 3e 5c 6b 32 bf
       0.6373352 -0.0047919084 0.3698383 -0.6969507
0001d0 eb 82 e3 3c 8f 85 cf 3e 26 84 9a bd ab 3d 88 3d
       0.027772387 0.40531585 -0.075447366 0.06652387
0001e0 93 fe 55 be a0 16 5c be e1 e6 d2 3b fb de 4e 3b
       -0.20897894 -0.21493006 0.0064362143 0.0031566012
0001f0 ca e4 17 3e 94 b8 38 be cb 00 07 bf 8d 27 cf bc
       0.1483337 -0.18039161 -0.52735585 -0.025287414
000200 e2 39 af 3d a5 99 36 bf 38 af f1 3e 6b 4e 87 be
       0.08555962 -0.7132819 0.47203994 -0.26427016
000210 21 d5 fe 3d e4 a1 71 be d8 35 7b 3e 03 a8 b3 bd
       0.12442995 -0.23596913 0.24532259 -0.0877228
000220 8e ba cc 3e da ff 99 3d 76 a6 87 3d b0 b6 09 3e
       0.3998608 0.07519503 0.06623547 0.13448596
000230 de 5f e2 be bd 81 83 3e 13 44 2e 3f a4 d5 10 bf
       -0.44213766 0.2568492 0.68072623 -0.5657599
000240 04 5f 98 3e 6d 41 b7 3e 45 51 13 bc 70 3b fe 3d
       0.2975999 0.35792103 -0.008991544 0.124136806
000250 07 6d 7f bd b0 dc 51 be 04 1e 83 3d 3a 31 06 3f
       -0.062359836 -0.20494342 0.064022094 0.52418864
000260 37 38 00 3e 2a 50 d3 bd ef d7 15 be 24 1d 81 3e
       0.12521444 -0.103180245 -0.14633153 0.25217545
000270 4a d4 a1 be 3c b7 3d 3c 01 ac bc be 06 14 93 bd
       -0.31607276 0.011579331 -0.3684998 -0.071815535
000280 3e a8 fd bd dd a3 a8 3d 0e 6d 90 3e e2 76 a0 bd
       -0.12385605 0.082343794 0.28208202 -0.07835175
000290 9e fe c3 3e fe af fa bd 74 56 0c bf 9b 0d 77 bf
       0.38280195 -0.12240599 -0.54819417 -0.96505135
0002a0 87 9a 0a be 62 c6 b6 3e 78 43 dd 3d d2 a7 e0 3e
       -0.1353551 0.3569823 0.10803884 0.43878037
0002b0 26 68 e0 be d6 25 ce bd 2c 93 46 bf c2 36 5f 3d
       -0.4382946 -0.100658104 -0.77568316 0.05449558
0002c0 fc b7 bb 3e ce 9d 13 3e ba 45 68 be 38 4c 72 be
       0.36663806 0.14415666 -0.22682849 -0.23661888
0002d0 e6 93 98 3e 78 6f 27 be 98 fd 48 bc e7 11 3c 3a
       0.29800338 -0.16351116 -0.012267493 0.00071742985
0002e0 e0 05 f2 3d f1 71 47 bf 19 bb dc 3e 50 74 68 be
       0.11817527 -0.77908236 0.43111494 -0.2270062
0002f0 99 e1 94 bd ec 16 69 3c 13 c3 f2 3d 3d 93 27 bf
       -0.07269592 0.014226656 0.11853614 -0.6545904
000300 18 f2 f6 3d c7 1c 40 3b be d4 88 bd 98 67 0b 3c
       0.120578945 0.0029314028 -0.06681202 0.008508585
000310 54 ac 12 3d 00 db 68 be 27 4e 51 be 71 ad 32 3c
       0.035808876 -0.22739792 -0.20439969 0.0109056095
000320 fe 95 4f 3c dc 82 8e be c1 5a 58 3e e7 0d 0f bd
       0.012670038 -0.27834213 0.2112837 -0.034925368
000330 3c 26 81 3e f5 8a 8e be 44 77 e6 3b be 57 7c bd
       0.25224483 -0.2784039 0.0070332605 -0.061607115
000340 0b 67 4a be 64 82 45 3d 9d cc 1d be 42 20 11 bc
       -0.1976587 0.048220053 -0.15410085 -0.0088577885
000350 9d 56 d5 3e aa 6e 12 3d 0c f5 4a 3e 46 5b e7 3d
       0.41667643 0.03575007 0.1982004 0.11296706
000360 69 30 19 be 65 fd 11 3e f8 2f 9a be a2 03 58 3d
       -0.14959873 0.14256819 -0.30114722 0.05273784
000370 2c 45 83 bc a1 7f 5e be e8 9a f2 3c 73 80 05 3d
       -0.016024195 -0.21728374 0.02961488 0.0325932
000380 ad d9 c7 bd 47 9c 03 3d f9 f1 66 3d 75 4e 81 bd
       -0.09758315 0.03213146 0.056383107 -0.063137926
000390 54 3a 7e 3e f7 d2 c8 3d b7 2c f2 bd 8b 0b 61 be
       0.24826938 0.09805863 -0.11824935 -0.2197706
0003a0 4e de a2 3d af be 28 3e e3 be 1b 3f da 15 d0 be
       0.079525575 0.1647899 0.60838145 -0.4064167
0003b0 42 00 af 3e 50 98 72 be 18 00 82 bd cf 42 91 3d
       0.34179884 -0.23690915 -0.06347674 0.07092821
0003c0 1d bb 2c be 40 17 70 bd f6 1f 27 3e ce 69 1b 3f
       -0.16868253 -0.058615923 0.16320786 0.6070832
0003d0 4c 50 92 3b 4b af 54 3e f7 a3 c9 3c f7 36 2c 3e
       0.0044651385 0.20769994 0.024614317 0.16817842
0003e0 b8 0c 54 be 00 ca 38 be 57 19 54 3e 61 5a 04 be
       -0.20707977 -0.18045807 0.20712791 -0.12925102
0003f0 d7 73 02 bf 10 fd c2 3e 55 c2 16 3e cc 06 30 3f
       -0.5095801 0.38083696 0.1472257 0.6876037

squeezenet/fire3/squeeze1x1/BiasAdd/ReadVariableOp:0 f4 [16]
000000 e0 11 57 3e a8 17 9f 3e ea c9 dd 3b 64 a2 93 3d
       0.21002913 0.31072736 0.006768455 0.07208708
000010 d0 1d 69 bc 60 35 3f 3e 1c e3 30 be b3 2a 8e 3d
       -0.014228299 0.18672705 -0.17274135 0.06941738
000020 f9 3f a5 3e 25 7f 27 be d2 ff 87 3e 89 be d8 3e
       0.3227537 -0.16357096 0.26562363 0.42332867
000030 cb 54 e6 3c 5e 48 23 3e 81 dc e1 3e 29 26 2b 3d
       0.028116604 0.15945575 0.44113544 0.04178444

squeezenet/fire3/expand3x3/Conv2D/ReadVariableOp:0 f4 [64, 16, 3, 3]
000000 66 bd 83 bd 78 81 9d bd 4a 3e 1a bf f1 ac b4 bd
       -0.06432609 -0.0769071 -0.60251296 -0.088220485
000010 3a 56 00 be ca f3 aa be 72 b3 57 3f 16 df f5 3e
       -0.12532893 -0.3338912 0.84258187 0.48021764
000020 d8 ec a4 3e b1 0b 79 3d 91 f8 f0 bc 34 54 f4 3e
       0.32211947 0.060802165 -0.0294154 0.47720492
000030 9a 11 f3 be 5a 6f f0 be 58 aa a9 3e ab 0a 20 bf
       -0.47474366 -0.46959955 0.33137774 -0.6251628
000040 bf 4d e5 be 53 14 aa 3d c6 35 6d 3d 74 8c a2 3e
       -0.44785878 0.08304658 0.05791261 0.31747782
000050 35 3c 4a bd b2 00 7a bd 52 e0 38 be 0b d1 6e bc
       -0.049373824 -0.06103582 -0.18054321 -0.014576207
000060 83 00 d0 3e 8c cd d4 3e db b1 76 3e 64 ac ab be
       0.4062539 0.4156307 0.24091284 -0.3352996
000070 8b 39 ad be 31 03 4b 3e 92 11 08 bf d8 79 0f bf
       -0.33832964 0.19825436 -0.5315181 -0.56045294
000080 87 8c a9 bc 50 3c af bd 0d 30 40 3e 41 e1 2b 3e
       -0.020696891 -0.085564256 0.1876833 0.16785146
000090 15 9a ab 3e 12 74 12 3c f0 1e 9c 3e b8 65 61 bd
       0.33515993 0.008938806 0.30492353 -0.055028647
0000a0 91 b9 94 3d 2b da 61 3e 9b bc 99 be 1b 18 21 be
       0.072619565 0.2205588 -0.30026707 -0.15731852
0000b0 0e b1 17 3e d9 ea 10 3f 49 f7 2b bc dd 79 7d bd
       0.14813635 0.5660835 -0.010495969 -0.061883796
0000c0 54 40 31 3e c0 2b c6 3d 0c c2 51 bc f9 bb c4 be
       0.17309695 0.096763134 -0.012802612 -0.38424662
0000d0 76 f0 ab be 2a 26 0d be f8 a4 bb 3e 7e 84 a6 3e
       -0.33581895 -0.1378409 0.366493 0.3252296
0000e0 20 d2 b1 be 8e 2e 16 3c 9c 48 b5 3e f0 58 1a bd
       -0.34730625 0.009166373 0.3540696 -0.037682474
0000f0 24 24 be be 8d 58 b8 be 67 ec a0 bc cb 11 b7 3d
       -0.37136948 -0.3600506 -0.019643975 0.089389406
000100 44 50 80 3e ce 59 0f 3e b3 e5 11 3e 46 a7 aa 3e
       0.25061238 0.13999102 0.1424778 0.33330745
000110 11 90 40 3e b3 7c 75 3e df 5d 66 3e 93 ba 60 3e
       0.18804957 0.2397335 0.22496746 0.21946172
000120 ce a3 12 be b0 f0 37 be 0c 4f 71 3e 00 f0 49 3e
       -0.14320299 -0.17962909 0.2356531 0.19720459
000130 a2 55 10 be 2c 37 47 3e 8b 2f 16 3e 79 91 59 be
       -0.14095166 0.1945464 0.14666574 -0.212469
000140 29 2d 0f be 82 12 db bd 82 c7 ba bd 3a bf d3 bd
       -0.13982071 -0.106968895 -0.09120084 -0.10339208
000150 d9 da 95 bd 46 55 9f bd 7c 78 7a bc 3c f2 8e bd
       -0.073171325 -0.077799365 -0.015287515 -0.06979796
000160 d5 c4 33 bd 10 6a 5b bd 7c 57 f5 bd 5f 02 b5 3c
       -0.043888886 -0.053567946 -0.11979577 0.022095857
000170 48 b5 e8 bd 87 3e f4 3d cf 52 b7 3e 70 a4 83 3d
       -0.11362702 0.11925989 0.35805365 0.06427848
000180 01 ee ad be d3 7b 05 be 05 44 14 be 75 e4 4b bf
       -0.33970645 -0.13035516 -0.14479072 -0.7964547
000190 3c a4 67 3d dd af f4 be 38 de cd bd b9 57 0d 3f
       0.05655311 -0.47790423 -0.100521505 0.5521198
0001a0 24 ce 4c bd 47 1c ee bd 85 95 21 3e 95 12 9a bd
       -0.05000128 -0.11626487 0.15779693 -0.075230755
0001b0 65 d2 dc be 5b d7 6a be 0a 08 75 3e f2 1b c8 be
       -0.43129268 -0.22933714 0.23928848 -0.3908382
0001c0 78 1d 4b 3d 65 95 11 3f 76 ee 07 bf 2a a9 27 be
       0.04958865 0.5686858 -0.5309824 -0.16373125
0001d0 89 ca e3 bc 34 a5 09 be 19 48 f4 3d cb df c5 3e
       -0.027806537 -0.13441926 0.11927814 0.38647303
0001e0 d7 d6 78 3e 78 70 0e 3e ab 11 83 3e ee de 22 3e
       0.24300705 0.13910091 0.25599417 0.15905353
0001f0 23 f7 c8 bd 53 d0 c1 be ea f0 c9 be 8b 54 71 be
       -0.098127626 -0.3785425 -0.39441615 -0.23567407
000200 4f 8a 02 bf 87 de 31 bf 1f 37 66 be fc 49 07 bf
       -0.5099229 -0.69480175 -0.22481965 -0.52847266
000210 a5 df 62 bd d7 4d a8 3e 07 94 5c 3e 50 29 a1 bc
       -0.055389065 0.32871887 0.21540843 -0.01967302
000220 09 ef 06 3e c7 c0 ae be 90 f8 83 3e 27 16 5c bd
       0.13177122 -0.34131452 0.25775576 -0.053732064
000230 ff 27 b6 be 3b 37 e7 3e c7 00 29 3e 3c 62 cc be
       -0.3557739 0.45159325 0.16504203 -0.39918697
000240 84 ff 8b be f4 5e 00 bd f2 df 48 bd e4 c8 ad bd
       -0.2734338 -0.031340554 -0.049041696 -0.084855825
000250 e8 c7 16 3e 57 5e 09 bd 70 4a cc be 23 6c 5e bf
       0.14724696 -0.033537235 -0.3990054 -0.86883754
000260 0b 8a e5 be ff 18 3e be 78 b9 9a be 78 17 24 bf
       -0.4483188 -0.18564223 -0.30219626 -0.6409831
000270 16 fb 41 3d d5 8c e2 3e 31 f0 81 bd 01 8a 99 3d
       0.047358595 0.4424807 -0.06344641 0.07497025
000280 a0 54 f6 3e f8 a7 3f 3e 02 12 cf 3e e7 8c 9a bd
       0.4811144 0.18716419 0.40443426 -0.07546406
000290 3c 91 2e 3e 41 39 9d be 75 c7 1c 3e 75 07 14 be
       0.1704759 -0.30707744 0.15310462 -0.1445597
0002a0 41 41 d2 bd ad 6c 82 38 6e 57 22 be 60 69 aa 3e
       -0.102663524 6.2191255e-05 -0.15853664 0.3328352
0002b0 fe f5 5a 3e 2d 33 cf be f6 91 c1 bd ba 21 09 bf
       0.21382901 -0.40468732 -0.09451668 -0.5356709
0002c0 2d fe 64 be 46 73 d5 3e 07 c2 da 3e 80 ca bd 3e
       -0.22362585 0.4168951 0.42726156 0.37068558
0002d0 dc 84 b0 bc 82 e3 11 3f 72 21 8f 3c db f1 02 be
       -0.021547727 0.56987774 0.017472003 -0.12787573
0002e0 b8 35 21 bd 1b 65 26 be b9 4b 2b be a5 cf 28 bf
       -0.03935787 -0.16249506 -0.16728105 -0.6594184
0002f0 1d 57 80 be f2 9a 0d be 43 06 b2 3d 4c eb 30 be
       -0.25066462 -0.13828638 0.086926006 -0.17277259
000300 11 0f 36 be ac 91 31 bc cc 1f b4 bd 82 15 c4 3d
       -0.17779185 -0.010837954 -0.08795127 0.09574415
000310 1d 20 f8 3b 8d 0b c7 3c 03 96 76 3e 08 b3 f1 3e
       0.0075721876 0.0242975 0.24080662 0.47206903
000320 ab 7f 89 3e 1a b9 09 bf 81 18 e8 be 18 df b1 be
       0.26855215 -0.5379807 -0.45331195 -0.3474052
000330 b2 10 f7 be 7c 79 22 bf b8 9d 4e be f8 22 33 3e
       -0.48254925 -0.6346662 -0.20177352 0.17493808
000340 50 ed 59 3e d7 7a b8 3d ae 93 3c be c1 94 3a be
       0.21281934 0.09007805 -0.1841571 -0.18220808
000350 21 ca cb be 10 f6 e8 3d 4c d7 e8 bd 46 8d 28 be
       -0.3980265 0.11375058 -0.113691896 -0.16460142
000360 19 45 11 3d 29 75 b5 3e 8b 32 d7 3e fd 17 76 bc
       0.035466287 0.3544095 0.4203075 -0.015020368
000370 bc 1d da be d7 7f 19 bd c7 34 d9 3e e2 33 9e bc
       -0.4260081 -0.037475433 0.42423078 -0.019311849
000380 ac 68 a6 3d 60 c5 7a bb 5a 54 64 3c 7a 54 bf 3a
       0.08125433 -0.0038264617 0.013936127 0.001459732
000390 dc 32 1c 3d 3c 4c 92 3d 56 e5 da bd 5f 72 d8 3d
       0.03813444 0.07143447 -0.106882736 0.105686896
0003a0 79 fc 8e 3d a5 40 19 3d 7b f6 08 3e cf 48 71 3e
       0.06981749 0.037415165 0.13375275 0.2356293
0003b0 30 de a3 bc 13 71 cb bd cf b4 6d be 5f af 9f be
       -0.020003408 -0.099336766 -0.23213504 -0.31188485
0003c0 97 d2 82 be 5d cc 14 3f 6f 25 3e 3e e6 c5 cb 3e
       -0.25551292 0.58124334 0.18568967 0.39799422
0003d0 e9 80 8b 3e 5e 73 d8 3d a1 d1 00 bf 99 6e 38 bf
       0.27246788 0.105688795 -0.5031987 -0.7204376
0003e0 7c 7b 07 3d 3c 13 4d be d5 1f 47 bf b3 c8 08 3e
       0.03307675 -0.20026869 -0.77782947 0.1335781
0003f0 39 cb 6e bd e6 48 8d 3e 26 fe 72 3e 66 ef ae bc
       -0.058299277 0.2759468 0.23729762 -0.021354388

squeezenet/fire3/expand3x3/BiasAdd/ReadVariableOp:0 f4 [64]
000000 51 d5 08 be a8 75 a6 bc 79 ff c2 be 7f b7 30 be
       -0.13362624 -0.020319775 -0.38085535 -0.17257498
000010 c3 92 b0 3b 77 5f 82 bd 7a 4c 68 3e 6a 00 89 bd
       0.005388589 -0.06365865 0.22685423 -0.06689532
000020 5d ce 05 bd 27 43 2b 3e 23 e2 a8 bd fa e7 99 3e
       -0.032667506 0.16724835 -0.08246257 0.30059797
000030 ee 9e b5 be 48 44 03 3e fa 98 06 be 29 43 22 be
       -0.35472816 0.12819016 -0.13144293 -0.15845932
000040 31 9c 5b 3e 45 6f 31 be 61 61 7b 3e e1 22 d4 bd
       0.21446301 -0.17327602 0.24548866 -0.10358215
000050 47 ad 00 3e 75 2b 79 3e b1 c1 ba 3d 6f 08 93 bd
       0.125661 0.24332984 0.09118975 -0.07179343
000060 10 6e d3 3d d9 e1 77 bd 73 d8 8b 3e e5 80 a4 be
       0.10323727 -0.06051812 0.27313575 -0.3212959
000070 3f 8a 0b 3f 44 6d b9 3d d0 aa cc 3e 6f 87 29 3e
       0.5450782 0.09054044 0.3997407 0.1655557
000080 1f 8c 8e 3e 6c 45 2c be f5 23 2c bf 96 ce 00 3c
       0.2784128 -0.16823357 -0.67242366 0.007861754
000090 71 69 42 be 98 d3 e3 3d 38 57 95 3e 71 9e 73 3d
       -0.18985535 0.11124343 0.29168105 0.059477273
0000a0 82 cd 5e 3e d9 02 dc 3d 1c bb 45 3c 6a 17 cf be
       0.21758083 0.10742731 0.012068536 -0.4044755
0000b0 05 37 84 be 93 ed e0 bc d6 2a 39 be 22 50 02 3e
       -0.25823227 -0.027457034 -0.18082747 0.1272588
0000c0 e9 ce 80 3e 8e 5b 19 3b c8 23 1f bd cd d7 ae 3d
       0.2515786 0.0023400518 -0.038852483 0.085372545
0000d0 8c 42 1d be 53 29 9b be 79 97 64 3e eb 67 8a be
       -0.15357417 -0.30304965 0.22323407 -0.27032408
0000e0 74 84 a4 3d 8a 1f a4 bd 02 4b 9e 3e 47 15 95 3c
       0.08033076 -0.08013828 0.309166 0.018198622
0000f0 ab 54 34 be 6e e8 be 3e 78 94 33 3e b6 2c 1c 3e
       -0.17610423 0.37286705 0.17537105 0.15251431
